Practice/checkpoint/best_model.pth (torch, 245244 bytes, 22 tensors)

0.weight f4 [32, 3, 3, 3]
0.13629189 0.10760369 -0.1441867 -0.15368125 -0.12017704 0.076913476 -0.013265709 0.1779212
-0.08231446 0.18006818 -0.047936365 -0.0034666674 -0.2576136 -0.18033202 -0.013182827 -0.046045873
0.124091856 0.12216369 -0.12660499 -0.18797497 -0.016661528 0.05477881 -0.12125424 0.16234669
-0.04347528 0.09915022 0.19741102 0.002809667 -0.0072401403 0.15517746 -0.08334341 0.07814788
0.032102846 -0.07169367 -0.26651493 -0.16252169 -0.046611007 0.07932408 -0.031200852 0.12058309
-0.15681544 -0.24338536 0.08160724 -0.34823224 -0.34870592 -0.101944305 -0.007820335 -0.071170926
-0.0061481353 -0.026184792 0.08530367 0.3272429 0.10058885 0.01918632 0.04614701 -0.22361507
-0.0687184 -0.1711794 -0.1296808 -0.042637527 0.17983474 0.27307191 0.14644894 0.0071339295
0.088081546 -0.06790572 -0.067875616 0.029358117 0.13260649 0.07274621 -0.16193523 -0.03375358
0.10230493 0.2352292 0.22571746 0.070017025 0.027793692 -0.11811241 -0.1621028 -0.20847495
-0.18838803 0.12421526 0.21851058 -0.1494715 0.01963924 -0.053921025 -0.10148861 -0.10058678
0.07050863 -0.007877126 0.12574115 0.22249267 0.15268978 0.0763474 -0.22892223 -0.27824357
0.044370603 0.005944935 -0.089083664 -0.02823467 0.28250292 0.17397541 -0.0816197 -0.091217734
-0.29402763 0.0050459546 -0.09431422 0.029191019 -0.018044244 -0.0034223942 -0.041644644 0.11582741
-0.25575203 0.19811621 0.14084505 -0.21635813 0.07350507 0.0009857125 -0.02511517 0.054573793
0.13297315 -0.10814054 -0.037775677 0.17269109 -0.21514113 0.03504378 0.022962576 -0.04817606
0.013942193 -0.021498851 -0.09392042 0.11914183 -0.05235088 -0.10154041 0.16223894 -0.14547925
-0.053139213 -0.06940248 0.012513143 0.16724537 0.19315991 0.13054304 0.21806718 0.012485808
-0.1327153 -0.074624054 0.25419572 -0.061925367 -0.19125082 -0.1595672 -0.20490184 -0.2678516
-0.020750673 0.18322933 0.16254847 -0.046266768 0.13422106 -0.1773331 -0.027446358 0.00085393514
-0.048299585 0.01451199 -0.23023254 -0.2095251 -0.005723279 -0.031918306 -0.107084654 0.15675394
-0.046533786 0.058581304 0.3691611 -0.028520443 0.2135458 0.007985954 -0.115626164 0.14498559
-0.07551009 -0.03488353 0.111995086 -0.20888938 0.10048313 -0.006107125 0.024481744 0.13659455
0.100404665 -0.042119782 0.039465874 -0.069077104 -0.24766102 0.13931304 0.23084775 0.19537468
-0.23142351 -0.08188939 -0.21129754 -0.024343615 -0.09431419 0.051201694 -0.15303525 0.010981177
0.013260716 0.07198749 -0.17062417 -0.13469721 0.06033851 0.25556374 0.041960005 0.078314275
0.019291485 -0.0280249 -0.076233074 -0.09487844 -0.013772186 0.04220535 0.031140093 0.052495487
0.013846313 -0.16866572 0.111088336 -0.16326177 0.08831813 0.20754972 0.08208561 0.1355449
-0.3100215 0.16069424 -0.19700544 -0.051480107 -0.14174886 0.0708695 0.04866354 0.041814007
0.07418141 0.021008803 0.19230145 -0.14655358 0.06237027 -0.16210489 0.0074460274 0.08181352
-0.051204864 0.1672019 -0.17246488 -0.0007789499 0.101867735 -0.14165618 0.19537057 -0.12709682
0.10674809 0.054402445 -0.046561144 0.17046043 0.058299202 -0.16738836 -0.18946528 -0.12484735
00000000: 1a90 0b3e 535f dc3d aea5 13be 9e5e 1dbe
00000010: 611f f6bd d084 9d3d 6b58 59bc fa30 363e
00000020: 7c94 a8bd cb63 383e ec58 44bd 0731 63bb
00000030: eee5 83be f5a8 38be c9fc 57bc 999a 3cbd
00000040: df23 fe3d f530 fa3d bda4 01be 837c 40be
00000050: c27d 88bc bf5f 603d 2554 f8bd 363e 263e
00000060: 2313 32bd 450f cb3d 1d26 4a3e 6422 383b
00000070: b33e edbb d7e6 1e3e f3af aabd ff0b a03d
00000080: 467e 033d 21d4 92bd a574 88be 166c 26be
00000090: 2feb 3ebd aa74 a23d ee98 ffbc 44f4 f63d
000000a0: 3a94 20be 033a 79be b221 a73d 7f4b b2be
000000b0: 9589 b2be 2dc8 d0bd dd20 00bc 10c2 91bd
000000c0: 4c76 c9bb 7d81 d6bc b1b3 ae3d 628c a73e
000000d0: 8701 ce3d a12c 9d3c a604 3d3d 59fb 64be
000000e0: 3cbc 8cbd a749 2fbe 0bcb 04be b0a4 2ebd
000000f0: 9926 383e 15d0 8b3e b6f6 153e bdc3 e93b
00000100: 1964 b43d 2712 8bbd 5f02 8bbd 6f80 f03c
00000110: ffc9 073e f7fb 943d 59d2 25be 3241 0abd
00000120: 3f85 d13d ecdf 703e 7a22 673e 1665 8f3d
00000130: 99af e33c ebe4 f1bd 47fe 25be 757a 55be
00000140: cbe8 40be 9264 fe3d 3dc1 5f3e 0f0f 19be
00000150: 79e2 a03c 4bdc 5cbd 43d9 cfbd 7100 cebd
00000160: d466 903d 100f 01bc 4ac2 003e 1ed5 633e
00000170: b65a 1c3e 075c 9c3d 976a 6abe f175 8ebe
00000180: f3bd 353d bbcd c23b 7f71 b6bd 654c e7bc
00000190: 39a4 903e 9c26 323e 3b28 a7bd 5dd0 babd
000001a0: ca8a 96be 8958 a53b d027 c1bd 0122 ef3c
000001b0: 86d1 93bc 3f4a 60bb 9393 2abd ec36 ed3d
000001c0: eef1 82be fade 4a3e af39 103e fc8c 5dbe
000001d0: d389 963d 0633 813a 54be cdbc c588 5f3d
000001e0: 1d2a 083e ca78 ddbd abba 1abd efd5 303e
000001f0: f54d 5cbe 118a 0f3d 031c bc3c 4354 45bd
00000200: cc6d 643c 5c1e b0bc 5959 c0bd a200 f43d
00000210: e06d 56bd 6bf4 cfbd f721 263e 83f8 14be
00000220: 81a8 59bd e322 8ebd ed03 4d3c 5f42 2b3e
00000230: b6cb 453e 13ad 053e 014d 5f3e 4691 4c3c
00000240: 85e6 07be 7fd4 98bd f125 823e 74a5 7dbd
00000250: 41d7 43be 9665 23be cad1 51be d823 89be
00000260: 51fd a9bc 78a0 3b3e 1b73 263e 3982 3dbd
00000270: 3f71 093e cf96 35be 2fd7 e0bc 9eda 5f3a
00000280: c9d5 45bd b3c3 6d3c 14c2 6bbe bf8d 56be
00000290: 588a bbbb c5bc 02bd 334f dbbd 1b84 203e
000002a0: 369a 3ebd f3f2 6f3d af02 bd3e b4a3 e9bc
000002b0: c0ab 5a3e 85d7 023c 69cd ecbd 1a77 143e
000002c0: 09a5 9abd 08e2 0ebd ae5d e53d 19e7 55be
000002d0: 19ca cd3d 471e c8bb f08d c83c 71df 0b3e
000002e0: f6a0 cd3d cb85 2cbd f8a6 213d 4c78 8dbd
000002f0: da9a 7dbe 14a8 0e3e 5a63 6c3e 4d10 483e
00000300: 49fa 6cbe a0b5 a7bd 625e 58be 436c c7bc
00000310: cc27 c1bd deb8 513d 46b5 1cbe 65ea 333c
00000320: 7943 593c 2d6e 933d 1ab8 2ebe 11ee 09be
00000330: 8325 773d 40d9 823e 41de 2b3d 3c63 a03d
00000340: 2d09 9e3c 7a94 e5bc 1620 9cbd a14f c2bd
00000350: bca4 61bc 84df 2c3d 8219 ff3c 8205 573d
00000360: a5db 623c b5b6 2cbe 4882 e33d 182e 27be
00000370: 23e0 b43d ea87 543e 801c a83d 48cc 0a3e
00000380: 23bb 9ebe 088d 243e cbbb 49be cedc 52bd
00000390: 9d26 11be 0724 913d 6c53 473d 2a45 2b3d
000003a0: 6cec 973d a71a ac3c acea 443e 2412 16be
000003b0: f877 7f3d d3fe 25be cefd f33b d98d a73d
000003c0: 31bc 51bd fa36 2b3e a29a 30be 7132 4cba
000003d0: 08a0 d03d 510e 11be 390f 483e ab25 02be
000003e0: be9e da3d 19d5 5e3d e6b6 3ebd 2e8d 2e3e
000003f0: 25cb 6e3d db67 2bbe 3003 42be f8af ffbd

0.bias f4 [32]
0.22514823 -0.07192524 0.0029838851 -0.055326015 -0.06428633 -0.015675906 0.07655812 -0.10720426
-0.10871747 0.04230885 0.0326062 -0.012106015 0.1465512 0.20071194 -0.13277905 -0.011980978
-0.076773435 -0.23263526 -0.21092817 0.07041406 0.02609545 0.12734778 0.15965438 -0.14371209
0.018837603 0.16597576 -0.10601822 0.18099925 0.108559065 0.26690775 0.062726066 0.018893002
00000000: 428d 663e 8a4d 93bd 498d 433b 889d 62bd
00000010: 8da8 83bd c26a 80bc 81ca 9c3d e88d dbbd
00000020: 44a7 debd 0b4c 2d3d 148e 053d 4f58 46bc
00000030: 8511 163e 6e87 4d3e 3bf7 07be dd4b 44bc
00000040: 643b 9dbd f037 6ebe 8efd 57be 3f35 903d
00000050: 20c6 d53c 7567 023e 707c 233e 4329 13be
00000060: 5151 9a3c 8df5 293e 1520 d9bd de57 393e
00000070: 3754 de3d 22a8 883e 8676 803d 7fc5 9a3c

1.weight f4 [32]
0.9845634 0.6907703 0.9810232 0.8402419 1.3925712 0.76894015 0.8616385 1.0974886
1.2372963 0.54321676 0.64710045 0.9178246 0.9866143 0.87148404 0.64423645 1.2460827
0.774729 1.1169004 0.9068523 0.8521747 0.9345365 1.1013883 0.823015 1.0350161
0.790465 1.062412 0.97242737 0.70566326 0.9575428 0.59203076 1.2188302 0.95212805
00000000: 590c 7c3f 53d6 303f 5624 7b3f 181a 573f
00000010: c63f b23f 43d9 443f 5794 5c3f 827a 8c3f
00000020: ba5f 9e3f 4110 0b3f 60a8 253f 8ef6 6a3f
00000030: c192 7c3f 9419 5f3f aeec 243f a37f 9f3f
00000040: a454 463f 98f6 8e3f 7927 683f 1f28 5a3f
00000050: c93d 6f3f 4bfa 8c3f 1cb1 523f 687b 843f
00000060: ea5b 4a3f 1efd 873f 00f1 783f 59a6 343f
00000070: 8621 753f 548f 173f a102 9c3f aabe 733f

1.bias f4 [32]
-0.43470463 -0.49594176 -0.33780324 -0.10653241 -0.19519097 -0.4403842 -0.2438426 -0.18797114
-0.24183127 -0.050761946 -0.14041477 -0.3315975 -0.66262174 -0.23460345 -0.2200588 -0.4332403
-0.32290763 -0.5647047 -0.37921634 -0.4059875 -0.26744795 -0.2703904 -0.036880977 -0.6223999
-0.52774817 -0.46127203 -0.31136933 0.11463032 -0.06079784 0.08502673 -0.3021221 -0.253245
00000000: 9b91 debe 14ec fdbe 8cf4 acbe aa2d dabd
00000010: 24e0 47be 0a7a e1be e0b1 79be 827b 40be
00000020: 9ea2 77be c2eb 4fbd e4c8 0fbe 26c7 a9be
00000030: 94a1 29bf e33b 70be 1857 61be acd1 ddbe
00000040: 2654 a5be 7d90 10bf a528 c2be 98dd cfbe
00000050: f0ee 88be 9c70 8abe 8210 17bd 9a55 1fbf
00000060: 811a 07bf d92b ecbe cd6b 9fbe 4dc3 ea3d
00000070: 2807 79bd 7f22 ae3d bfaf 9abe 54a9 81be

1.running_mean f4 [32]
0.22046435 -0.06212649 0.006680882 -0.05501324 -0.066707864 -0.011517084 0.08151847 -0.10955594
-0.108853556 0.04476459 0.031721048 -0.015211183 0.15343645 0.19810458 -0.1344225 -0.01187396
-0.0703628 -0.23285143 -0.2092825 0.07081703 0.023986273 0.13099766 0.16275333 -0.14258331
0.012660716 0.16684821 -0.106812604 0.1739678 0.10838986 0.26896602 0.0640964 0.019654559
00000000: 68c1 613e 5978 7ebd 4deb da3b 9055 61bd
00000010: 229e 88bd 27b2 3cbc 28f3 a63d dd5e e0bd
00000020: 9dee debd 135b 373d eeed 013d 5338 79bc
00000030: 721e 1d3e eddb 4a3e 0da6 09be ff8a 42bc
00000040: 5f1a 90bd 9b70 6ebe 274e 56be 8508 913d
00000050: dc7e c43c 4024 063e cfa8 263e 5c01 12be
00000060: e46e 4f3c 42da 2a3e 91c0 dabd 9d24 323e
00000070: 81fb dd3d eab5 893e f944 833d 9902 a13c

1.running_var f4 [32]
0.108582236 0.7557292 0.04419682 0.2730993 0.06333166 0.10522174 0.03454725 0.057553317
0.029460339 0.13885692 0.09942877 0.026045607 0.19990715 0.02658199 0.8826481 0.016339872
0.23863912 0.09895801 0.036275227 0.054532725 0.0450037 0.05062849 0.4299005 0.095164634
0.20674019 0.04786478 0.15491284 0.17979367 0.33890894 0.063461155 0.03933717 0.0058474904
00000000: 5d60 de3d 7877 413f ba07 353d acd3 8b3e
00000010: 08b4 813d 7f7e d73d 6b81 0d3d 07bd 6b3d
00000020: cf56 f13c 8230 0e3e 50a1 cb3d 995d d53c
00000030: 76b4 4c3e 79c2 d93c 3af5 613f 32db 853c
00000040: d05d 743e 7faa ca3d 5595 143d b55d 5f3d
00000050: cd55 383d d25f 4f3d eb1b dc3e ade5 c23d
00000060: b3b3 533e dc0d 443d 79a1 1e3e d51b 383e
00000070: 7985 ad3e ecf7 813d 0320 213d 4e9c bf3b

5.weight f4 [64, 32, 3, 3]
-0.032426044 -0.008026808 -0.037280403 0.04846069 0.02602961 0.050933115 0.19271432 0.15338625
0.050374705 0.15771769 0.08757317 0.07135916 0.049048077 0.0047058417 -0.012197953 -0.02759125
-0.103532486 -0.20065129 -0.0103396615 -0.035957832 0.11781088 -0.18057758 -0.12823868 -0.01568019
-0.1923956 -0.20241225 -0.094716005 0.012154449 0.063336976 0.02716225 0.051323652 0.0668563
0.08606195 -0.039101005 0.16531596 -0.21029909 -0.015661012 0.0516876 -0.026879648 -0.008785453
0.116702005 -0.09543957 -0.14864276 0.07679162 -0.081924826 -0.08280802 -0.045112666 -0.020860558
-0.04703693 0.024968695 0.040583074 -0.10975403 0.022256315 -0.03602399 -0.12828311 -0.056386426
-0.018045863 -0.09167995 -0.008476864 -0.049107663 -0.12531649 0.008290203 -0.20555566 -0.049933556
-0.020886447 0.036809947 0.03227977 -0.00048630452 -0.006102902 0.0135951005 -0.007451475 -0.10707753
0.11893569 0.13356414 -0.0011176097 0.15093715 0.1677882 0.07141769 0.15141533 0.1862317
-0.11684599 -0.076449 -0.18652298 -0.0018831444 -0.032191213 -0.04783716 0.031161055 -0.00931875
0.06574066 -0.0012458303 0.04087111 0.0069565387 -0.044315845 -0.060165145 -0.1420101 -0.10546418
-0.11289067 -0.083483584 -0.027190743 -0.1058117 -0.049349327 -0.14251095 -0.053316023 -0.023750618
-0.032266077 -0.13412832 -0.0077983798 -0.21251678 -0.22399084 -0.2324209 -0.22589776 -0.10310564
-0.04531941 0.019348772 -0.093115866 0.028482817 0.15291736 0.022389838 0.0006071497 -0.11252573
-0.021289626 -0.054693475 -0.14060673 -0.12345311 -0.018238826 -0.008523832 -0.021824718 0.067300946
-0.024440955 0.035669107 0.048270628 0.10183124 -0.15640931 -0.0757436 -0.10086049 0.041566014
0.072286725 0.08282718 0.0107652955 0.058268316 -0.06154561 -0.17514865 -0.027293216 -0.3072234
0.017743725 0.030525208 -0.009782486 -0.019088529 0.0001446094 0.029325176 -0.06324169 -0.023339367
-0.1842806 -0.06915018 -0.017121531 0.020111617 0.04313718 0.059885435 0.09879543 -0.15607102
-0.12871101 -0.115857385 -0.051348668 0.06259393 -0.049128346 -0.010268496 -0.0059460807 0.028288959
-0.24077977 -0.18878278 -0.033970427 0.094780624 0.14387947 0.074011885 0.105364345 0.05146493
0.008337841 -0.09413489 0.02834037 -0.10512988 0.10722468 0.07612311 0.06117698 0.12910567
0.069993846 0.021041987 0.10017144 -0.09551236 -0.04933997 0.07995191 -0.006693712 -0.06116973
0.15065517 0.005926479 -0.061443023 -0.004834714 0.06627954 0.11137004 -0.096390426 -0.0054937294
-0.0926719 -0.02219106 0.03409635 0.02504296 -0.25275156 -0.119043626 -0.12358412 -0.037352614
-0.08987086 -0.22823659 -0.01888841 -0.048003793 -0.16477373 -0.07732409 0.05174943 -0.09110842
-0.13445559 -0.021719715 -0.08119664 -0.13587824 0.03363771 0.052255176 -0.24813926 -0.09850692
-0.061619338 -0.03416789 -0.02320312 0.08634197 0.018486978 0.11239075 0.08925811 -0.0946206
0.051026653 0.12381949 -0.012912926 0.09411688 0.056608673 0.04954486 0.0046043294 0.047296524
0.055551115 0.12780075 0.17358983 -0.009221302 0.1140619 -0.018436387 0.0044838837 0.018887196
-0.0010499291 -0.105066165 -0.15859565 -0.31357303 -0.21988453 -0.06722238 -0.034353025 -0.07143076
00000000: 2cd1 04bd df82 03bc 56b3 18bd b77e 463d
00000010: 0c3c d53c 3e9f 503d e756 453e 4911 1d3e
00000020: b555 4e3d bf80 213e 9059 b33d c024 923d
00000030: a3e6 483d 7633 9a3b ecd9 47bc 0c07 e2bc
00000040: d708 d4bd 8877 4dbe af67 29bc 8548 13bd
00000050: d546 f13d 54e9 38be 0051 03be be73 80bc
00000060: 5a03 45be 2845 4fbe 77fa c1bd 7423 473c
00000070: d1b6 813d 5e83 de3c c038 523d f5eb 883d
00000080: 3f41 b03d 6028 20bd 9648 293e a558 57be
00000090: 864b 80bc 60b6 533d b532 dcbc dcf0 0fbc
000000a0: 7601 ef3d d275 c3bd cf35 18be ed44 9d3d
000000b0: 34c8 a7bd 4097 a9bd 0fc8 38bd c3e3 aabc
000000c0: cca9 40bd 268b cc3c 703a 263d b9c6 e0bd
000000d0: e052 b63c e48d 13bd a65c 03be 74f5 66bd
000000e0: ebd4 93bc b3c2 bbbd 8be2 0abc 1e25 49bd
000000f0: f752 00be a2d3 073c 2f7d 52be 2187 4cbd
00000100: 0e1a abbc 07c6 163d cb37 043d b0f6 feb9
00000110: dafa c7bb fcbd 5e3c 812b f4bb 774b dbbd
00000120: 8e94 f33d 0ac5 083e c27c 92ba 458f 1a3e
00000130: abd0 2b3e 7043 923d 9f0c 1b3e 86b3 3e3e
00000140: f34c efbd 4b91 9cbd e1ff 3ebe d7d3 f6ba
00000150: efda 03bd e6f0 43bd 7845 ff3c acad 18bc
00000160: 0aa3 863d 214b a3ba 7768 273d adf3 e33b
00000170: 8884 35bd ba6f 76bd 186b 11be 9bfd d7bd
00000180: 3933 e7bd 71f9 aabd 1fbf debc ceb3 d8bd
00000190: 8522 4abd 64ee 11be e761 5abd a890 c2bc
000001a0: 6f29 04bd ef58 09be 8d89 ffbb 009e 59be
000001b0: db5d 65be bfff 6dbe be51 67be 0d29 d3bd
000001c0: d8a0 39bd 5181 9e3c 88b3 bebd cc54 e93c
000001d0: 5e96 1c3e e56a b73c 2029 1f3a e473 e6bd
000001e0: 9567 aebc 4406 60bd 36fb 0fbe fcd4 fcbd
000001f0: 9769 95bc 8ba7 0bbc c0c9 b2bc 14d5 893d
00000200: 6638 c8bc c519 123d 6cb7 453d e68c d03d
00000210: c329 20be 761f 9bbd f28f cebd 2041 2a3d
00000220: 100b 943d 4ca1 a93d ec60 303c c2aa 6e3d
00000230: 4017 7cbd 2b5a 33be 0696 dfbc 634c 9dbe
00000240: 4a5b 913c 0010 fa3c b846 20bc 8c5f 9cbc
00000250: 4aa2 1739 5a3b f03c dc84 81bd 3332 bfbc
00000260: 0eb4 3cbe 9c9e 8dbd 7442 8cbc 1ec1 a43c
00000270: 9db0 303d 6e4a 753d 4255 ca3d 15d1 1fbe
00000280: d2cc 03be a346 edbd fb52 52bd 3f31 803d
00000290: ce3a 49bd 323d 28bc 57d7 c2bb 3fbe e73c
000002a0: f98e 76be 4650 41be 9324 0bbd 581c c23d
000002b0: 2455 133e 8b93 973d 43c9 d73d e4cc 523d
000002c0: 719b 083c cbc9 c0bd 102a e83c 564e d7bd
000002d0: 9d98 db3d 6fe6 9b3d b794 7a3d 4734 043e
000002e0: ef58 8f3d 3f60 ac3c af26 cd3d fc9b c3bd
000002f0: b518 4abd d4bd a33d ed56 dbbb 1c8d 7abd
00000300: 5945 1a3e e932 c23b aeab 7bbd 856c 9ebb
00000310: 91bd 873d fa15 e43d 5868 c5bd be04 b4bb
00000320: c4ca bdbd 07ca b5bc 9da8 0b3d e526 cd3c
00000330: a768 81be 25cd f3bd ac19 fdbd 0eff 18bd
00000340: 370e b8bd dab6 69be debb 9abc a09f 44bd
00000350: 72ba 28be 185c 9ebd 36f7 533d 0d97 babd
00000360: baae 09be 8bed b1bc 6d4a a6bd aa23 0bbe
00000370: b2c7 093d 8609 563d 3818 7ebe ffbd c9bd
00000380: 8f64 7cbd a1f3 0bbd 7814 bebc 0fd4 b03d
00000390: 0172 973c 1f2d e63d f5cc b63d 72c8 c1bd
000003a0: 5301 513d 1395 fd3d bd90 53bc 5ac0 c03d
000003b0: 7fde 673d 8def 4a3d eadf 963b 00ba 413d
000003c0: 9189 633d 33de 023e 88c1 313e f214 17bc
000003d0: 4999 e93d e807 97bc 8bed 923b 52b9 9a3c
000003e0: c69d 89ba ee2c d7bd e666 22be a58c a0be
000003f0: 6929 61be e3ab 89bd c2b5 0cbd 4a4a 92bd

5.bias f4 [64]
-0.0060992227 -0.010469701 -0.07115959 -0.016748335 -0.0016581671 -0.047492493 0.09160788 -0.062242545
-0.08793297 0.061294105 -0.041590266 0.093331136 -0.011053366 -0.06546076 -0.04130382 -0.040614195
-0.0019432285 -0.000916122 -0.00037598147 0.08314272 -0.024565713 -0.0062542045 -0.0099118445 -0.0882878
0.075975895 0.06610591 -0.035519794 -0.08686824 -0.023293532 0.05190101 0.060635027 -0.032355845
0.034713786 0.034031924 -7.098085e-05 -0.082540214 -0.03850739 -0.043535575 -0.11242282 0.059070777
-0.14289196 -0.04329657 0.051504012 0.035198934 0.020008257 0.05192477 0.041651614 -0.0029206192
-0.027764685 -0.059623007 -0.04398676 -0.041839514 -0.05355364 -0.007133893 -0.02070116 0.0183868
0.03909633 0.015672948 -0.097283535 -0.067209534 0.09260281 0.04974494 -0.040963773 0.099578
00000000: fddb c7bb 1c89 2bbc 1ebc 91bd ce33 89bc
00000010: db56 d9ba 7d87 42bd ea9c bb3d 0af2 7ebd
00000020: 3316 b4bd 870f 7b3d 8e5a 2abd 6524 bf3d
00000030: 2d19 35bc 4a10 86bd 322e 29bd 125b 26bd
00000040: eeb3 feba e827 70ba 611f c5b9 bb46 aa3d
00000050: 093e c9bc 12f0 ccbb 4a65 22bc 3cd0 b4bd
00000060: 4099 9b3d 8962 873d 347d 11bd fae7 b1bd
00000070: 14d2 bebc 2796 543d 6f5c 783d 9087 04bd
00000080: 0b30 0e3d 0f65 0b3d 8edb 94b8 d80a a9bd
00000090: edb9 1dbd 5c52 32bd ef3d e6bd 33f4 713d
000000a0: 4552 12be bf57 31bd dff5 523d c22c 103d
000000b0: 5be8 a33c 11af 543d e29a 2a3d dc67 3fbb
000000c0: c472 e3bc 4137 74bd 762b 34bd e95f 2bbd
000000d0: 105b 5bbd 6fc3 e9bb 7b95 a9bc ea9f 963c
000000e0: 7923 203d 8e64 803c 973c c7bd 27a5 89bd
000000f0: 8ba6 bd3d 5ac1 4b3d a1c9 27bd 8def cb3d

6.weight f4 [64]
0.8377848 0.8275273 0.7861386 0.857472 0.9236031 0.8570423 0.81511307 0.86511046
0.78307474 0.799941 0.9788123 0.76669496 0.85730475 0.79018956 0.78546494 0.8062991
0.86791116 0.7713068 0.7974753 0.84971964 0.8792472 0.7966851 0.8081066 0.73457867
0.83454746 0.85167086 0.91308296 0.69957715 0.8108425 0.7701698 0.865308 0.8352768
0.7532782 0.8171979 0.8297752 0.82257015 0.8456123 0.8162427 0.771044 0.76700443
0.8175263 0.7852841 0.70613474 0.87030846 0.75617886 0.7172028 0.7389864 0.8370821
0.7990592 0.8083626 0.76381457 0.8471747 0.6541125 0.7846725 0.84358114 0.8593153
0.7699382 0.8351901 0.832397 0.86314976 0.803318 0.82678616 0.85267437 0.7529497
00000000: 1179 563f d4d8 533f 6140 493f 4983 5b3f
00000010: 4171 6c3f 2067 5b3f 40ab 503f e177 5d3f
00000020: 9677 483f efc8 4c3f 7193 7a3f 1f46 443f
00000030: 5378 5b3f dd49 4a3f 3b14 493f 9e69 4e3f
00000040: 6d2f 5e3f 5d74 453f 5727 4c3f 3a87 593f
00000050: 5816 613f 8ef3 4b3f 13e0 4e3f 590d 3c3f
00000060: e7a4 553f 1a07 5a3f cebf 693f 7d17 333f
00000070: 6093 4f3f d929 453f d384 5d3f b3d4 553f
00000080: d7d6 403f e233 513f 266c 543f f593 523f
00000090: 0c7a 583f 48f5 503f 2463 453f 675a 443f
000000a0: 6749 513f 6108 493f 3fc5 343f 89cc 5e3f
000000b0: f094 413f 9a9a 373f 362e 3d3f 034b 563f
000000c0: 258f 4c3f daf0 4e3f 5a89 433f 71e0 583f
000000d0: eb73 273f 4ce0 483f eff4 573f 16fc 5b3f
000000e0: ab1a 453f 05cf 553f f817 553f 62f7 5c3f
000000f0: 40a6 4d3f 42a8 533f de48 5a3f 50c1 403f

6.bias f4 [64]
-0.60276335 -0.607187 -0.62920046 -0.6355244 -0.6271986 -0.73523474 -0.60113955 -0.6299017
-0.5186724 -0.44385278 -0.6976095 -0.53890574 -0.5951677 -0.5490843 -0.5216822 -0.59604216
-0.59838265 -0.5572076 -0.47021526 -0.5253768 -0.5421714 -0.54230607 -0.6832096 -0.4911999
-0.62666374 -0.61122274 -0.7454042 -0.48359603 -0.52567166 -0.53840774 -0.43132967 -0.50751036
-0.45567554 -0.6239849 -0.5715681 -0.5959822 -0.6752661 -0.5708656 -0.6914808 -0.5210912
-0.57194406 -0.61435175 -0.48640856 -0.55825233 -0.42052177 -0.48244318 -0.43243268 -0.5552446
-0.6376843 -0.6532278 -0.5863773 -0.5914271 -0.3081753 -0.58859307 -0.6582693 -0.6281727
-0.47540104 -0.56763107 -0.59146094 -0.61421746 -0.54859483 -0.62276274 -0.6439298 -0.55454755
00000000: b34e 1abf 9b70 1bbf 4813 21bf bab1 22bf
00000010: 1690 20bf 5838 3cbf 48e4 19bf 3d41 21bf
00000020: b7c7 04bf ac40 e3be 8996 32bf baf5 09bf
00000030: e95c 18bf ca90 0cbf f78c 05bf 3896 18bf
00000040: 9b2f 19bf 28a5 0ebf 0ec0 f0be 187f 06bf
00000050: bfcb 0abf 92d4 0abf d3e6 2ebf 8e7e fbbe
00000060: 096d 20bf 1879 1cbf cfd2 3ebf e699 f7be
00000070: 6b92 06bf 17d5 09bf 3ed7 dcbe 33ec 01bf
00000080: 4e4e e9be 79bd 1fbf 4952 12bf 4a92 18bf
00000090: 3dde 2cbf 3f24 12bf e304 31bf 3c66 05bf
000000a0: ed6a 12bf 2846 1dbf 8b0a f9be a0e9 0ebf
000000b0: a14e d7be cb02 f7be d167 ddbe 8324 0ebf
000000c0: 473f 23bf f039 27bf d31c 16bf c467 17bf
000000d0: 27c9 9dbe 09ae 16bf 5684 28bf edcf 20bf
000000e0: c467 f3be 4550 11bf fc69 17bf 5b3d 1dbf
000000f0: b670 0cbf 616d 1fbf 95d8 24bf d4f6 0dbf

6.running_mean f4 [64]
-1.1883937 -0.7758819 -0.4907397 -0.6562994 -1.1231302 -0.89311135 -0.73851514 -0.7567675
-0.83058393 -0.9884322 -1.446703 -0.6818155 -0.63083166 -0.7590463 -0.64006764 -0.86242306
-0.7662415 -0.8633328 -1.1196837 -1.1109017 -1.2364974 -0.8403734 -0.6006776 -0.47598344
-0.58951306 -1.1264617 -1.3939927 0.2326656 -0.7483164 -0.95068526 -0.8616142 -0.7148513
-1.1922883 -0.75684077 -1.0451157 -0.7677383 -0.665438 -0.6660754 -0.6829596 -0.64712596
-0.85922444 -0.6320169 -0.3015258 -1.3560067 -0.5592673 -0.4968525 -0.8546475 -0.8762758
-0.9121089 -0.7735893 -0.5035278 -0.76933515 -0.6026563 -0.8715537 -0.6736649 -0.81732726
-0.7102181 -0.7781785 -0.77746344 -1.0758013 -0.76572096 -0.4739224 -1.163718 -0.77164054
00000000: 491d 98bf 32a0 46bf 3c42 fbbe 3d03 28bf
00000010: bbc2 8fbf f2a2 64bf 540f 3dbf 84bb 41bf
00000020: 26a1 54bf e509 7dbf 902d b9bf 768b 2ebf
00000030: 2f7e 21bf dc50 42bf 79db 23bf c2c7 5cbf
00000040: 6728 44bf 6103 5dbf cc51 8fbf 0732 8ebf
00000050: 8c45 9ebf b622 57bf 02c6 19bf 1ab4 f3be
00000060: 54ea 16bf e62f 90bf 5a6e b2bf e43f 6e3e
00000070: aa91 3fbf 1c60 73bf c092 5cbf 7f00 37bf
00000080: e79c 98bf 51c0 41bf 5ac6 85bf 7f8a 44bf
00000090: 255a 2abf eb83 2abf 71d6 2ebf 0caa 25bf
000000a0: 22f6 5bbf dccb 21bf 9761 9abe a191 adbf
000000b0: 242c 0fbf 7363 febe 2eca 5abf 9c53 60bf
000000c0: f87f 69bf f309 46bf 33e7 00bf 26f3 44bf
000000d0: af47 1abf 251e 5fbf 4e75 2cbf 5c3c 51bf
000000e0: dad0 35bf b536 47bf d807 47bf dbb3 89bf
000000f0: 4a06 44bf f5a5 f2be b6f4 94bf 3c8a 45bf

6.running_var f4 [64]
1.272875 1.2116135 0.6843181 0.84030867 1.9344717 0.7770426 0.915205 0.9277854
0.69834805 1.0490947 2.852208 0.77001935 0.77635646 0.78287435 0.9173546 0.7571706
1.2140685 0.9172846 1.62502 1.4463906 1.3785195 0.7840166 0.7574852 0.7716875
0.589604 1.6240368 2.2221837 0.7325323 0.9407807 1.0667852 1.7444518 1.0845953
1.8214366 1.652345 0.95741725 0.7786139 0.7209886 0.70627594 0.5508531 0.6537709
1.2812179 0.57977504 0.88723356 1.72987 0.75782514 0.5649204 1.3993497 1.0229596
0.92517316 0.6117391 0.76167095 1.0333606 0.48288345 0.9075109 0.7751826 1.1131389
0.96523607 0.82561016 0.86007774 1.0437031 1.3568249 0.86610246 1.5203238 0.83177674
00000000: 91ed a23f 2716 9b3f 792f 2f3f 781e 573f
00000010: c59c f73f 44ec 463f e04a 6a3f 5883 6d3f
00000020: f0c6 323f bc48 863f 938a 3640 fd1f 453f
00000030: 4cbf 463f 746a 483f c0d7 6a3f efd5 413f
00000040: 9966 9b3f 2ad3 6a3f a800 d03f 5423 b93f
00000050: 5473 b03f 50b5 483f 8dea 413f 508d 453f
00000060: 4af0 163f 70e0 cf3f 4238 0e40 3d87 3b3f
00000070: 01d7 703f 6b8c 883f 324a df3f 05d4 8a3f
00000080: d624 e93f 0a80 d33f 4c19 753f 3e53 473f
00000090: b592 383f 80ce 343f b504 0d3f 885d 273f
000000a0: f3fe a33f 236c 143f bd21 633f 616c dd3f
000000b0: d400 423f a09e 103f e41d b33f 57f0 823f
000000c0: 26d8 6c3f ef9a 1c3f defc 423f 2945 843f
000000d0: 803c f73e a252 683f 5e72 463f 567b 8e3f
000000e0: b619 773f 305b 533f 0e2e 5c3f 1098 853f
000000f0: 70ac ad3f e4b8 5d3f f899 c23f 52ef 543f

10.weight f4 [64, 64, 3, 3]
0.027884912 -0.04153513 -0.012158937 -0.06744789 -0.12723853 -0.09068148 0.14502755 0.11335819
0.13674708 -0.05273001 0.15035896 0.10610735 -0.09492197 -0.011181316 0.037434522 0.019238701
-0.0015941736 -0.012327669 -0.18124884 -0.14820233 -0.0970913 -0.15987559 -0.09665191 -0.08133247
0.024608897 0.041118927 0.085738145 -0.009158002 -0.07612483 -0.09213733 -0.01434491 -0.09136282
-0.12962626 -0.20056412 -0.25692514 -0.30869722 -0.12593317 -0.103629 -0.07514159 -0.046480495
-0.1117674 -0.16684252 -0.031928737 -0.10008437 -0.14135522 0.08591326 -0.033205304 -0.042501643
0.0025206434 -0.07350657 -0.10279066 -0.0525591 -0.037818644 -0.047244225 -0.073962435 0.05564893
0.044266734 0.069033034 0.019120554 0.047521066 0.1724792 0.14044452 0.10881475 -0.01873019
-0.12438746 -0.12064864 -0.046513084 -0.11728351 -0.105149396 -0.031643968 0.037580393 0.040727947
-0.06674706 0.04416856 -0.06927109 -0.122227944 -0.023892356 -0.12007851 -0.0383731 0.03499923
0.063569635 0.1646035 0.16488923 0.25308564 -0.022945339 -0.09971372 -0.025909878 -0.046044942
-0.11056916 0.022369955 0.06752589 0.043847024 0.19703743 0.016912034 0.065547846 -0.04168247
-0.036513116 0.08667736 0.06306825 0.09870553 0.04040766 0.04304137 -0.012568638 -0.05293358
-0.04510999 -0.108996734 -0.09421653 -0.08749362 0.024263205 0.013846896 -0.00024498012 -0.036158517
-0.0043392703 -0.043503385 0.08630821 0.068211555 0.022168046 -0.11050331 -0.19658184 -0.057170514
-0.057371557 -0.16921051 -0.1446941 -0.033717975 -0.20515211 -0.21347302 0.0663087 0.1062409
0.0059671686 0.08783739 0.20053072 0.0601403 0.014021298 0.105998024 -0.032734852 0.19436857
0.1038735 0.10314019 0.10497151 0.04319863 0.06993967 0.006693059 0.013913158 0.021619331
0.025937537 -0.06294819 -0.11296568 -0.07004909 -0.07968529 -0.1259607 -0.14032218 -0.076065265
-0.12257799 0.03351874 0.12535587 0.08130158 -0.10086112 -0.041942 -0.015752828 -0.1277824
0.05768314 0.14270577 0.02151662 0.072811 0.072406195 0.104399554 0.11873922 0.14077799
0.0343134 0.03989838 0.14147693 0.08316863 -0.03490487 0.014730578 -0.1483224 -0.22263865
-0.15379028 -0.1657503 -0.16173987 -0.08917179 -0.03730286 -0.1127117 -0.04358178 -0.00614821
-0.14098649 -0.097660854 0.05587598 -0.0457657 -0.08753841 -0.017671216 0.052744776 -0.100287296
-0.055267133 -0.03783915 -0.060615037 0.03258412 0.044787843 0.088204876 -0.0875434 -0.023840612
-0.06631951 0.020752141 0.055667035 0.03858343 0.11083276 0.117472835 0.1581071 -0.12068701
-0.086180605 -0.019765278 -0.018643234 -0.013563426 0.033306953 -0.16131702 -0.035539743 -0.04568539
-0.12056865 -0.047019463 -0.018098494 -0.015950145 0.046126936 -0.077975765 0.09920047 0.0155949555
-0.103941925 0.085265025 -0.08291027 0.11978624 -0.037346266 -0.17944375 0.117533565 -0.006181181
-0.0663516 0.14559536 -0.1737645 -0.16532685 -0.27245912 -0.14405477 -0.1468064 -0.2263309
0.120783724 0.112947166 0.16101903 0.09471602 0.009746238 -0.0068126195 0.027725123 0.02157267
0.022648057 -0.0018717817 0.040504176 0.020796502 0.074339695 0.084276184 0.015973182 -0.04533077
00000000: e66e e43c be20 2abd 4736 47bc 1f22 8abd
00000010: d14a 02be 36b7 b9bd 1a82 143e 5728 e83d
00000020: 6d07 0c3e 6cfb 57bd b3f7 193e cf4e d93d
00000030: 7366 c2bd d731 37bc f154 193d 7b9a 9d3c
00000040: 97f3 d0ba fef9 49bc 4c99 39be 5ac2 17be
00000050: ced7 c6bd 6db6 23be 70f1 c5bd a391 a6bd
00000060: 9998 c93c 526c 283d 7b97 af3d 720b 16bc
00000070: 56e7 9bbd 7fb2 bcbd ea06 6bbc 6e1c bbbd
00000080: bfbc 04be ae60 4dbe b18b 83be 900d 9ebe
00000090: a0f4 00be 713b d4bd d5e3 99bd 5562 3ebd
000000a0: 4ee6 e4bd c4d8 2abe b5c7 02bd 09f9 ccbd
000000b0: 6cbf 10be 4bf3 af3d 4902 08bd 3416 2ebd
000000c0: 6131 253b 9d8a 96bd e983 d2bd 3648 57bd
000000d0: b9e7 1abd 2983 41bd 9e79 97bd 22f0 633d
000000e0: 0951 353d 3161 8d3d b5a2 9c3c 73a5 423d
000000f0: 639e 303e b0d0 0f3e 45da de3d 0e70 99bc
00000100: dabe febd a216 f7bd 8184 3ebd 5632 f0bd
00000110: 9158 d7bd 1b9d 01bd e6ed 193d 59d2 263d
00000120: afb2 88bd 18ea 343d 00de 8dbd a552 fabd
00000130: e7b9 c3bc b9eb f5bd 1d2d 1dbd 5a5b 0f3d
00000140: cc30 823d d28d 283e b9d8 283e 7194 813e
00000150: ddf7 bbbc b536 ccbd f440 d4bc 9f99 3cbd
00000160: 1572 e2bd 3241 b73c 044b 8a3d f098 333d
00000170: 2ec4 493e 1b8b 8a3c f33d 863d 3dbb 2abd
00000180: c78e 15bd e683 b13d ed29 813d 2026 ca3d
00000190: 8182 253d 264c 303d b0ec 4dbc e2d0 58bd
000001a0: 41c5 38bd ae39 dfbd 99f4 c0bd db2f b3bd
000001b0: a1c3 c63c 17de 623c ad70 80b9 f41a 14bd
000001c0: 7030 8ebb 9b30 32bd 5cc2 b03d 80b2 8b3d
000001d0: c399 b53c 8f4f e2bd c04c 49be a12b 6abd
000001e0: 70fe 6abd 8545 2dbe b12a 14be dc1b 0abd
000001f0: 6513 52be ac98 5abe dbcc 873d d494 d93d
00000200: 3d88 c33b 17e4 b33d ed57 4d3e ad55 763d
00000210: 96b9 653c 7e15 d93d fb14 06bd 8e08 473e
00000220: a1bb d43d 2a3b d33d 4efb d63d 0cf1 303d
00000230: 883c 8f3d 7351 db3b 04f4 633c 061b b13c
00000240: f57a d43c fbea 80bd 8d5a e7bd e675 8fbd
00000250: 0b32 a3bd d7fb 00be 9eb0 0fbe 1bc8 9bbd
00000260: 2b0a fbbd f24a 093d 4a5d 003e 7181 a63d
00000270: 4690 cebd 60cb 2bbd 130c 81bc 64d9 02be
00000280: 2845 6c3d 7621 123e 9f43 b03c ef1d 953d
00000290: b349 943d 6fcf d53d 8c2d f33d 1b28 103e
000002a0: 358c 0c3d 7c6c 233d 54df 103e 5154 aa3d
000002b0: 69f8 0ebd 8658 713c d4e1 17be 63fb 63be
000002c0: 337b 1dbe 72ba 29be 239f 25be b39f b6bd
000002d0: e2ca 18bd 64d5 e6bd cf82 32bd ec76 c9bb
000002e0: c35e 10be 6a02 c8bd 36de 643d d174 3bbd
000002f0: 5747 b3bd 3ac3 90bc e80a 583d 6d63 cdbd
00000300: ca5f 62bd 39fd 1abd 7947 78bd ed76 053d
00000310: 7573 373d c2a4 b43d f449 b3bd 634d c3bc
00000320: 86d2 87bd 6500 aa3c 1e03 643d a909 1e3d
00000330: 49fc e23d 9995 f03d d4e6 213e c02a f7bd
00000340: 757f b0bd cbea a1bc b2b9 98bc 2239 5ebc
00000350: df6c 083d 4a30 25be 1f92 11bd 9a20 3bbd
00000360: b2ec f6bd 7b97 40bd 4b43 94bc e1a9 82bc
00000370: 99ef 3c3d c2b1 9fbd 9e29 cb3d fc81 7f3c
00000380: 81df d4bd 6e9f ae3d dccc a9bd 7d52 f53d
00000390: 66f8 18bd 1ac0 37be 70b5 f03d 818b cabb
000003a0: 59e3 87bd f316 153e 52ef 31be 714b 29be
000003b0: c37f 8bbe 1883 13be 6b54 16be 4ac3 67be
000003c0: 755d f73d d850 e73d 2ce2 243e 79fa c13d
000003d0: afae 1f3c 653c dfbb cc1f e33c 2bb9 b03c
000003e0: 6b88 b93c 9256 f5ba b5e7 253d 6d5d aa3c
000003f0: 693f 983d fe98 ac3d 31da 823c c2ac 39bd

10.bias f4 [64]
-0.011861391 -0.026049864 -0.0079749 0.034303967 0.008636339 0.03770669 -0.03378056 -0.060970098
0.07746951 0.062080882 -0.018629367 0.0062286155 0.02403855 -0.010394619 0.08765186 0.03892857
0.08192052 0.010150322 0.04528781 0.036361497 -0.014703285 -0.016779378 0.054625474 0.04284425
0.042581085 -0.012835722 0.013009646 0.041195326 0.021053001 0.027980518 0.009073777 0.020602928
0.031497154 0.072961524 0.003105953 -0.054408286 -0.003645854 0.033644874 -0.008617974 0.022371523
-0.054151215 -0.015659664 0.03554218 -0.038510606 0.00842709 0.06404743 -0.0055660713 -0.022630503
-0.020017907 -0.049746256 0.0105585335 0.03344894 -0.009738042 -0.01738791 0.026246198 0.00792719
0.007160644 0.02142175 0.016862338 -0.0020025384 0.019407306 0.0027411962 -0.0019048143 -0.019491186
00000000: 4856 42bc 8666 d5bc 28a9 02bc 5182 0c3d
00000010: 6e7f 0d3c 5572 1a3d 7c5d 0abd c8bb 79bd
00000020: 56a8 9e3d 8648 7e3d 9d9c 98bc 6a19 cc3b
00000030: 7eec c43c 314e 2abc d282 b33d 9073 1f3d
00000040: f2c5 a73d 894d 263c b67f 393d cbef 143d
00000050: 0ce6 70bc e874 89bc f6be 5f3d 747d 2f3d
00000060: 8169 2e3d ec4c 52bc 6926 553c 6ebc 283d
00000070: 5877 ac3c 6637 e53c 2eaa 143c 79c7 a83c
00000080: 2903 013d da6c 953d 3f8d 4b3b 39db 5ebd
00000090: 48ef 6ebb 35cf 093d 6732 0dbc 7c44 b73c
000000a0: aacd 5dbd b248 80bc ad94 113d 4cbd 1dbd
000000b0: c711 0a3c 4d2b 833d 9763 b6bb 9b63 b9bc
000000c0: 98fc a3bc bbc2 4bbd b3fd 2c3c c101 093d
000000d0: 4f8c 1fbc 1771 8ebc 4402 d73c 0be1 013c
000000e0: d6a3 ea3b aa7c af3c e322 8a3c 053d 03bb
000000f0: 12fc 9e3c a4a5 333b f6aa f9ba fbab 9fbc

11.weight f4 [64]
1.3046522 1.3422556 1.3332745 1.3626931 1.3368548 1.2797675 1.2952304 1.4139919
1.2850413 1.331529 1.335601 1.3646128 1.3147029 1.3560659 1.336419 1.2424957
1.3360138 1.3643918 1.2885468 1.2962418 1.3781016 1.3313454 1.252886 1.3272153
1.3984041 1.2843276 1.2416054 1.4492472 1.3616673 1.3895249 1.2503052 1.3139341
1.2910948 1.3005428 1.3259816 1.3434778 1.1619347 1.2257907 1.3086454 1.2858492
1.2120217 1.3007965 1.4612067 1.3521614 1.2573441 1.4047875 1.323712 1.3713968
1.3185047 1.3513569 1.281988 1.3640159 1.3434091 1.2976761 1.302901 1.5567634
1.2572508 1.3645538 1.2635326 1.4567101 1.2442921 1.243709 1.2803355 1.3606808
00000000: d8fe a63f 08cf ab3f bda8 aa3f ba6c ae3f
00000010: 0f1e ab3f 6ccf a33f 1cca a53f b0fd b43f
00000020: 3c7c a43f 8b6f aa3f f9f4 aa3f a2ab ae3f
00000030: 2f48 a83f 9193 ad3f c70f ab3f 190a 9f3f
00000040: 8002 ab3f 64a4 ae3f 1aef a43f 40eb a53f
00000050: a265 b03f 8769 aa3f 925e a03f 31e2 a93f
00000060: e8fe b23f d964 a43f edec 9e3f ef80 b93f
00000070: 1d4b ae3f f4db b13f 000a a03f fe2e a83f
00000080: 9842 a53f 3078 a63f c4b9 a93f 15f7 ab3f
00000090: 47ba 943f b6e6 9c3f b181 a73f b596 a43f
000000a0: 8723 9b3f 8080 a63f d208 bb3f a013 ad3f
000000b0: a7f0 a03f 14d0 b33f 656f a93f ee89 af3f
000000c0: c3c4 a83f 43f9 ac3f 2f18 a43f 1398 ae3f
000000d0: d4f4 ab3f 401a a63f 76c5 a63f 0644 c73f
000000e0: 98ed a03f b3a9 ae3f 70bb a13f 7a75 ba3f
000000f0: f744 9f3f db31 9f3f 09e2 a33f ca2a ae3f

11.bias f4 [64]
-0.9144928 -0.9989811 -1.0649511 -0.8611451 -1.0730423 -1.1343117 -0.91775465 -1.0264949
-1.0634265 -1.2571906 -1.0500661 -0.7579441 -0.97062373 -1.0269302 -1.1033775 -0.93756396
-1.2933011 -0.9470842 -0.7906837 -1.0347612 -0.7923362 -1.2635986 -0.8769558 -1.0650074
-0.9669687 -0.95397425 -0.8468761 -1.186323 -1.0535128 -1.151234 -1.2715732 -0.86413825
-0.8382259 -1.1090771 -1.3048056 -1.3079578 -0.7737365 -0.7787288 -0.98954433 -0.7576837
-1.3511468 -1.0234125 -0.70676726 -1.1419808 -0.9427956 -1.1131685 -0.66596913 -1.2001342
-1.0069922 -1.0678399 -1.194476 -0.9186414 -0.83905774 -1.322385 -1.037788 -1.4471885
-1.17122 -0.94036895 -1.0953661 -1.0375117 -0.81420094 -1.0338464 -0.98792565 -1.0550245
00000000: 331c 6abf 3abd 7fbf 5150 88bf 0174 5cbf
00000010: 7359 89bf 2031 91bf f8f1 6abf 2f64 83bf
00000020: 5c1e 88bf 9feb a0bf 9168 86bf a008 42bf
00000030: cc7a 78bf 7372 83bf 793b 8dbf 3104 70bf
00000040: e48a a5bf 1c74 72bf 3f6a 4abf 0e73 84bf
00000050: 8cd6 4abf 99bd a1bf 2d80 60bf 2a52 88bf
00000060: 438b 77bf a837 74bf dfcc 58bf 6fd9 97bf
00000070: 82d9 86bf a35b 93bf e9c2 a2bf 2a38 5dbf
00000080: f995 56bf 3df6 8dbf df03 a7bf 296b a7bf
00000090: 9813 46bf c55a 47bf c752 7dbf 8ff7 41bf
000000a0: 61f2 acbf 2eff 82bf b3ee 34bf 6d2c 92bf
000000b0: 0d5b 71bf 4e7c 8ebf f47c 2abf ff9d 99bf
000000c0: 1fe5 80bf faae 88bf 97e4 98bf 152c 6bbf
000000d0: 7dcc 56bf e943 a9bf 3dd6 84bf 793d b9bf
000000e0: 89ea 95bf 05bc 70bf f534 8cbf 2fcd 84bf
000000f0: 796f 50bf 1455 84bf b2e8 7cbf 0b0b 87bf

11.running_mean f4 [64]
-0.38947502 -0.3604957 -0.4235253 -0.16914448 -0.3734235 -0.2658823 -0.33276427 -0.33432433
-0.2775644 -0.32293898 -0.44182745 -0.25155872 -0.345564 -0.4146354 -0.24763723 -0.13624945
-0.2019283 -0.39425993 -0.1916666 -0.26507652 -0.3737511 -0.3510434 -0.3170833 -0.3483634
-0.0392262 -0.3229114 -0.43038556 -0.20728683 -0.2359441 -0.12191047 -0.4751359 -0.5927347
-0.3326708 -0.265922 -0.42789832 -0.31688502 -0.30929476 -0.19872561 -0.3942797 -0.31262144
-0.36040595 -0.4005266 -0.11040866 -0.35491678 -0.4038837 -0.17812324 -0.49662763 -0.31276733
-0.31764123 -0.36871475 -0.4178483 -0.12955114 -0.46061605 -0.44590798 0.001541346 -0.36306363
-0.34405604 -0.3035055 -0.29092088 -0.39752245 -0.3749927 -0.11206285 -0.42504418 -0.4029927
00000000: 4569 c7be e492 b8be 4fd8 d8be 3634 2dbe
00000010: 5d31 bfbe ba21 88be 1460 aabe 8f2c abbe
00000020: ec1c 8ebe 4258 a5be 3537 e2be 4ecc 80be
00000030: c4ed b0be 174b d4be 9d94 7dbe fa84 0bbe
00000040: 4bc6 4ebe 70dc c9be 4044 44be 1cb8 87be
00000050: 4e5c bfbe f6bb b3be be58 a2be b05c b2be
00000060: a7ab 20bd a554 a5be 7f5b dcbe 0043 54be
00000070: 559b 71be 32ac f9bd 0345 f3be 76bd 17bf
00000080: d453 aabe ee26 88be 7d15 dbbe c13e a2be
00000090: e25b 9ebe ba7e 4bbe 07df c9be eb0f a0be
000000a0: 2187 b8be d311 cdbe ef1d e2bd a7b7 b5be
000000b0: d8c9 cebe f065 36be fa45 febe 0a23 a0be
000000c0: dfa1 a2be 2ec8 bcbe 36f0 d5be 0ea9 04be
000000d0: ded5 ebbe 0d4e e4be fd06 ca3a 7ae3 b9be
000000e0: 1d28 b0be 1365 9bbe 95f3 94be 1088 cbbe
000000f0: 0bff bfbe 3581 e5bd 649f d9be 0f55 cebe

11.running_var f4 [64]
0.10885955 0.09893688 0.113903604 0.08095116 0.10762093 0.10980295 0.110205926 0.10033159
0.09978687 0.097356446 0.12951931 0.09551937 0.12786724 0.11956291 0.10810958 0.106633395
0.097655565 0.12180827 0.0788657 0.10196066 0.102984555 0.10534204 0.09656216 0.10022947
0.101880565 0.09527333 0.10934175 0.10920891 0.105911605 0.0938341 0.110319704 0.11840375
0.124029264 0.10793079 0.108989924 0.08981817 0.10977255 0.11915441 0.11878296 0.13990848
0.112829566 0.11411605 0.09592661 0.113127016 0.108786985 0.09993105 0.092480354 0.10537837
0.11257623 0.11459371 0.10177048 0.080973454 0.13975768 0.12594634 0.10262448 0.12700543
0.09447968 0.11148393 0.097426884 0.11129 0.10377415 0.08997691 0.10627406 0.11978358
00000000: c1f1 de3d 6b9f ca3d 4b46 e93d b9c9 a53d
00000010: 5d68 dc3d 5ee0 e03d a5b3 e13d a67a cd3d
00000020: 0f5d cc3d d162 c73d b6a0 043e a99f c33d
00000030: a1ef 023e 66dd f43d 8e68 dd3d 9c62 da3d
00000040: a4ff c73d 9d76 f93d 5784 a13d c0d0 d03d
00000050: 91e9 d23d 91bd d73d 62c2 c53d 1c45 cd3d
00000060: c2a6 d03d aa1e c33d 91ee df3d eca8 df3d
00000070: 2fe8 d83d 182c c03d 4cef e13d aa7d f23d
00000080: 0e03 fe3d d10a dd3d 1c36 df3d 97f2 b73d
00000090: 6ed0 e03d 3a07 f43d 7b44 f33d 2b44 0f3e
000000a0: 3013 e73d adb5 e93d 2c75 c43d 23af e73d
000000b0: b6cb de3d a6a8 cc3d 5766 bd3d 9dd0 d73d
000000c0: 5e8e e63d 1bb0 ea3d 0b6d d03d 69d5 a53d
000000d0: a31c 0f3e 14f8 003e c92c d23d b60d 023e
000000e0: 907e c13d b051 e43d bf87 c73d 03ec e33d
000000f0: 8b87 d43d d045 b83d 37a6 d93d 1851 f53d

16.weight f4 [32, 64]
-0.17579173 -0.08719464 -0.14748207 0.35157794 -0.16876157 0.2680435 0.45687196 0.12170548
0.07004101 0.1778021 0.0678031 -0.2361376 -0.059396528 0.12875433 -0.18320037 -0.20418575
0.06366922 0.050085373 -0.12366572 0.13046369 0.042636264 -0.08525167 -0.21781619 0.13058345
-0.01738625 -0.028654864 -0.12043727 -0.048234887 -0.19855003 0.14542595 0.452229 -0.42012668
-0.027451716 -0.08665719 0.32236192 0.044076167 -0.07468959 0.092747025 -0.19807209 -0.32310316
0.14148751 -0.006907959 0.3517646 0.021685824 -0.3489389 -0.164898 -0.21647738 0.07321778
-0.043740407 0.14623222 0.050407466 -0.091548055 -0.086001076 0.26422432 -0.33957136 0.5969017
-0.20775223 -0.04189321 0.04076845 0.33558565 0.01043703 0.34072378 -0.20222148 0.22933465
-0.5853634 0.2536596 -0.23564766 0.5450831 0.12487894 0.09055688 -0.39858025 -0.31966764
0.08067628 -0.5140784 -0.23465522 -0.1267668 -0.23237972 0.1389359 -0.18347304 -0.299196
0.8832751 -0.13311127 -0.28634757 0.14362368 0.10781507 0.79218066 0.22514845 0.019632671
0.34856603 -0.061364967 -0.25511032 -0.34657001 -0.01129694 -0.1428748 -0.18841016 -0.24850774
0.16052946 -0.09998042 0.71609634 0.34072423 0.046216875 -0.0072278865 0.1175916 0.21382098
0.2152135 -0.1678313 0.21052608 -0.29786268 0.33680096 -0.27142707 -0.11124309 0.6784208
0.14709838 -0.0011057251 -0.09912595 0.67338896 0.029709069 0.22591023 0.59721404 0.043881383
0.26922145 -0.29421222 0.50400627 -0.45441535 -0.5039304 0.2859676 -0.10593818 0.23234318
0.11222742 -0.14353964 0.73660505 -0.11416307 -0.44986042 0.58483845 0.28325778 -0.31606403
-0.28676453 0.4281119 0.45465657 -0.03767926 0.43539733 -0.1485743 -0.33378825 -0.1446982
-0.011431876 -0.2194505 -0.2700417 0.2987527 -0.32659307 -0.10773761 0.24722734 -0.38075438
-0.38055494 0.023952765 -0.09163888 -0.5934354 -0.45903 0.34071574 0.06951664 0.049025305
0.6833142 0.11136083 -0.1833514 -0.317634 0.40583548 0.08814173 0.05556883 -0.043302566
0.88733643 -0.57084876 0.12447662 -0.008419517 0.28869337 0.6427001 -0.21645647 -0.4892655
0.46526125 -0.4563075 0.6588868 -0.27614927 0.14492579 -0.86012733 0.19638313 -0.38369206
-0.26990393 -0.29624113 0.24959749 0.04752398 0.15453394 -0.14620297 0.21115357 -0.13923807
0.29152822 0.24733643 -0.43108663 -0.025345204 -0.7224198 0.12420833 -0.26983383 0.030236864
0.728521 0.068195865 0.12032187 -0.09220984 0.40741298 0.21264093 0.48410735 -0.07725356
0.65429056 0.28156334 0.2879908 -0.011147118 -0.043269258 -0.37941778 0.07646872 0.31106433
-0.3925738 -0.4927999 -0.72602665 0.212449 0.014311209 -0.3369187 0.033541027 -0.5881813
-0.42001766 0.18974982 0.30787453 0.21539183 -0.29171765 0.009464989 0.5646904 0.1296952
0.1456823 0.033771038 -0.41553771 0.72742397 0.36770952 0.20306297 0.011999896 -0.2920462
-0.22568405 0.10232839 -0.08109008 -0.2560066 0.37445673 0.004490224 -0.03050145 -0.05450725
0.5431493 0.015545344 0.37968868 -0.07396586 -0.057984177 -0.4306426 0.24383365 -0.059247717
00000000: bf02 34be 1a93 b2bd 8a05 17be 0602 b43e
00000010: d5cf 2cbe ff3c 893e 1feb e93e b940 f93d
00000020: a971 8f3d c111 363e 5adc 8a3d 0ece 71be
00000030: c649 73bd 2dd8 033e e198 3bbe 1216 51be
00000040: 0265 823d 5226 4d3d 7444 fdbd 4698 053e
00000050: 5da3 2e3d 6d98 aebd 350b 5fbe abb7 053e
00000060: 9c6d 8ebc 9bbd eabc d1a7 f6bd f291 45bd
00000070: b350 4bbe 8aea 143e 8f8a e73e d81a d7be
00000080: 6ce2 e0bc 5379 b1bd 9f0c a53e 3689 343d
00000090: dbf6 98bd 27f2 bd3d 69d3 4abe c76d a5be
000000a0: 1ae2 103e 295c e2bb 7d1a b43e 78a6 b13c
000000b0: 1fa8 b2be 05db 28be 3fac 5dbe 34f3 953d
000000c0: 2429 33bd e6bd 153e 0f78 4e3d 8c7d bbbd
000000d0: 5521 b0bd 6948 873e 4cdc adbe 8dce 183f
000000e0: 00bd 54be 3798 2bbd d1fc 263d e2d1 ab3e
000000f0: 1400 2b3c 5973 ae3e 2613 4fbe b4d6 6a3e
00000100: 60da 15bf acdf 813e 9f4d 71be 918a 0b3f
00000110: 88c0 ff3d e375 b93d b612 ccbe 7aab a3be
00000120: 9b39 a53d a49a 03bf 7549 70be 28cf 01be
00000130: f3f4 6dbe 3645 0e3e 5be0 3bbe 3830 99be
00000140: 511e 623f 524e 08be 269c 92be 1612 133e
00000150: 26ce dc3d 5acc 4a3f 518d 663e b2d4 a03c
00000160: 3f77 b23e d559 7bbd d29d 82be a071 b1be
00000170: cd16 39bc c64d 12be 98ee 40be d078 7ebe
00000180: d661 243e 89c2 ccbd 1752 373f 6873 ae3e
00000190: e84d 3d3d e8d7 ecbb ddd3 f03d e3f3 5a3e
000001a0: ee60 5c3e f8db 2bbe 2694 573e 7581 98be
000001b0: 2d71 ac3e 7df8 8abe 6bd3 e3bd fcac 2d3f
000001c0: f5a0 163e faed 90ba 8c02 cbbd 3863 2c3f
000001d0: 6f60 f33c 0355 673e 05e3 183f f7bc 333d
000001e0: 65d7 893e fca2 96be 8e06 013f 21a9 e8be
000001f0: 9501 01bf 586a 923e 1ef6 d8bd 5feb 6d3e
00000200: 7dd7 e53d 0efc 12be 2692 3c3f 54ce e9bd
00000210: 1b54 e6be f9b7 153f 2a07 913e 25d3 a1be
00000220: cdd2 92be 7c31 db3e bfc8 e83e 9155 1abd
00000230: 66ec de3e dc23 18be 4be6 aabe c42b 14be
00000240: c34c 3bbc a2b7 60be e842 8abe 1df6 983e
00000250: 3537 a7be 89a5 dcbd 2a29 7d3e 3df2 c2be
00000260: 19d8 c2be 9738 c43c 2aad bbbd 62eb 17bf
00000270: fb05 ebbe 4b72 ae3e bd5e 8e3d c2ce 483d
00000280: aeed 2e3f 2611 e43d 78c0 3bbe eca0 a2be
00000290: abc9 cf3e a783 b43d 249c 633d 085e 31bd
000002a0: 7b28 633f 2523 12bf 99ed fe3d 04f2 09bc
000002b0: 9ecf 933e fe87 243f c4a6 5dbe 0281 fabe
000002c0: b936 ee3e 23a1 e9be ceac 283f 7063 8dbe
000002d0: 6d67 143e 4e31 5cbf a918 493e 4973 c4be
000002e0: d930 8abe ebac 97be 7c96 7f3e 81a8 423d
000002f0: 253e 1e3e 3bb6 15be a438 583e 6d94 0ebe
00000300: 3043 953e c345 7d3e 63b7 dcbe bfa0 cfbc
00000310: 81f0 38bf f060 fe3d a927 8abe 4db3 f73c
00000320: 5a80 3a3f 46aa 8b3d 506b f63d 83d8 bcbd
00000330: 6f98 d03e 8bbe 593e ebdc f73e 1d37 9ebd
00000340: 967f 273f 1229 903e 8873 933e 67a2 36bc
00000350: 1b3b 31bd 0c43 c2be a29b 9c3d d343 9f3e
00000360: 6fff c8be 4550 fcbe e2dc 39bf 3b8c 593e
00000370: 9079 6a3c 9c80 acbe 5162 093d 0d93 16bf
00000380: 8e0c d7be c74d 423e bba1 9d3e ad8f 5c3e
00000390: 045c 95be 0b13 1b3c 8d8f 103f d2ce 043e
000003a0: be2d 153e 8053 0a3d 5cc1 d4be 7538 3a3f
000003b0: 6c44 bc3e bdef 4f3e 369b 443c 1487 95be
000003c0: b819 67be 8c91 d13d 8e12 a6bd 4c13 83be
000003d0: cbb8 bf3e bb22 933b 2dde f9bc ff42 5fbd
000003e0: d50b 0b3f e6b1 7e3c 8e66 c23e 6a7b 97bd
000003f0: d180 6dbd 307d dcbe 87af 793e bcad 72bd

16.bias f4 [32]
0.10523444 0.14638533 0.32608238 0.09814187 0.048272014 0.04603805 0.14524221 0.17630073
0.19158602 0.072740436 0.12229879 0.1645445 0.3069376 0.03285415 0.3879346 0.23902915
0.052615177 0.15843415 0.14338776 0.090498954 0.16557045 0.2684184 0.071393296 0.18279052
-0.015827004 0.055553973 0.0038418588 -0.061987646 0.1675219 0.017800108 0.19692074 0.12757368
00000000: 2785 d73d 09e6 153e 45f4 a63e 9bfe c83d
00000010: e0b8 453d 6592 3c3d 60ba 143e 2e88 343e
00000020: 202f 443e f0f8 943d ca77 fa3d 5a7e 283e
00000030: ed26 9d3e 1392 063d 5d9f c63e 0fc4 743e
00000040: 0383 573d 903c 223e 3ed4 123e 8457 b93d
00000050: 4d8b 293e 236e 893e a636 923d 702d 3b3e
00000060: a2a7 81bc 908c 633d b2c7 7b3b c2e6 7dbd
00000070: dc8a 2b3e 88d1 913c 97a5 493e ada2 023e
