Practice/checkpoint/model_weights.pth (torch, 244924 bytes, 22 tensors)

0.weight f4 [32, 3, 3, 3]
000000 80 da bc ba c6 6e d3 3d 54 32 22 be db 07 11 be
       -0.001440838 0.10323863 -0.15839511 -0.14163153
000010 cc cd 97 bd c4 61 53 3d 40 e4 79 bb fd 40 1c 3e
       -0.074122995 0.05160691 -0.0038130432 0.15259166
000020 d8 e8 8b bc 6c 96 50 3d 28 3a 6e bd 9c f2 1a bd
       -0.017078802 0.050924703 -0.05816093 -0.037829027
000030 fc 44 3c be e4 83 02 be 03 79 a2 bd c0 9a e9 3b
       -0.1838569 -0.12745625 -0.079332374 0.0071290433
000040 0a d1 9b 3d de 7d ec 3d e2 99 05 be e2 a1 ab bd
       0.076082304 0.11547445 -0.13046983 -0.08380486
000050 56 28 8f 3d c5 a4 23 3e 2c 3a 22 bd 0f 78 13 3e
       0.06990115 0.15980823 -0.03960626 0.14401267
000060 20 1d fe bc 40 d2 a6 3c f3 70 32 3e a2 d0 36 be
       -0.031019747 0.020363927 0.17425899 -0.17853025
000070 ec 1f f8 bd 60 90 47 bd 88 a2 99 bd 87 44 2a 3e
       -0.121154636 -0.04872167 -0.075017035 0.16627704
000080 db 78 ff bd 41 6f b5 bd 28 ae 09 be 29 91 38 be
       -0.12474223 -0.088591106 -0.13445342 -0.18024124
000090 fd 12 e6 bd 69 66 29 3e 1e df af 3d 1a 07 bf 3d
       -0.112340905 0.16542973 0.08587478 0.093275264
0000a0 a0 d3 25 3c 65 11 ca bd 38 5d 05 3d 8f 00 38 be
       0.010121256 -0.09866599 0.032559603 -0.17968963
0000b0 34 65 0e be 9a 30 cb bd 2e ad f8 3d 62 17 e7 3d
       -0.13905793 -0.099213794 0.121424064 0.11283757
0000c0 54 cc ae bd 00 8b e3 bb 36 13 fc 3d a7 e9 43 3e
       -0.08535066 -0.0069440603 0.12308352 0.191321
0000d0 1e 6d 9c 3d 18 fb d4 3c cb 21 04 3e ba 11 e8 bd
       0.07638 0.025998637 0.12903516 -0.11331506
0000e0 f4 e3 12 3d e2 c9 18 be f2 95 08 be e8 9a cb bd
       0.035861924 -0.14920762 -0.1333845 -0.099416554
0000f0 32 56 b2 3d b2 81 9e 3d f0 77 e9 bd c4 24 6e 3d
       0.08707847 0.07739581 -0.113998294 0.05814053
000100 e2 5e d8 3d f8 fc c6 bc e0 c7 f0 3b ac a5 36 3d
       0.105649725 -0.024290547 0.0073480457 0.04459159
000110 8e 83 f4 3d 71 39 3d 3e ae dd 17 be 88 70 90 bd
       0.119391546 0.18478943 -0.14830658 -0.07052714
000120 6a e6 9a 3d 03 48 23 3e a5 7d 2b 3e 95 e2 2d 3e
       0.07563479 0.15945439 0.16747148 0.16980965
000130 d8 e0 1c 3d 21 5e 2b be e8 07 91 3c 20 93 f6 bd
       0.038300365 -0.16735126 0.017703965 -0.120397806
000140 c0 a8 37 be 1f 18 2f 3e df d7 15 3e ec 94 44 be
       -0.17935467 0.17099045 0.1463313 -0.19197434
000150 0c 8b 13 3d fc ca 04 bd 34 b8 01 bd 56 6b b4 bd
       0.036021277 -0.032420143 -0.03166981 -0.08809535
000160 72 91 97 3d ff 72 e9 bd ce 7c 90 3d 96 51 c7 3d
       0.07400788 -0.11398887 0.070550546 0.09732358
000170 75 13 0d 3e 5e 5f 93 3d c9 0b 43 be 0c ad ff bd
       0.13776954 0.07195924 -0.19047464 -0.12484178
000180 86 cc c4 3d b4 fc 24 3d f4 ba 19 be c5 f3 e2 bd
       0.09609322 0.04028006 -0.15012723 -0.110816516
000190 75 64 39 3e dd c9 04 3e 9f da ab bd a0 65 46 bd
       0.18104728 0.1296763 -0.08391308 -0.04843676
0001a0 3a ba 3b be 80 b2 62 bb 8c 67 14 be aa 02 18 be
       -0.18332759 -0.0034591258 -0.14492625 -0.14844766
0001b0 10 bc 2d bc 18 b6 ec 3c 4f 69 a1 bd 5e df e9 3d
       -0.01060392 0.028895423 -0.07881414 0.11419557
0001c0 27 d9 ef bd 7d d0 32 3e 21 0d 07 3e 51 2f 26 be
       -0.117113404 0.17462344 0.13188602 -0.16228987
0001d0 80 30 44 bd c0 46 0e 3c 40 05 e6 3c 6c f5 3a 3d
       -0.047897816 0.00868386 0.028078675 0.04564421
0001e0 ba ab 9a 3d 10 df 3c 3c a8 4f c0 bd 6e 80 ba 3d
       0.075522855 0.011527792 -0.09390193 0.09106527
0001f0 c2 09 3d be ac 9b e9 bd 34 54 45 bd 62 fd bf bd
       -0.18460754 -0.11406645 -0.048176005 -0.09374501
000200 ee e1 89 bd 9e 85 21 be 9c ad 27 bd bc 7f 28 3d
       -0.06732546 -0.15773627 -0.04093705 0.041137442
000210 36 62 00 be b0 d0 21 bc 6b 12 0d 3e e0 11 a2 bc
       -0.12537464 -0.009876415 0.13776557 -0.019783914
000220 60 43 af 3b e0 01 88 bc 44 88 1f 3d be 9b fa 3d
       0.005348608 -0.016602457 0.038948312 0.12236737
000230 39 ac 3a 3e ae 4c fa 3d 91 19 3b 3e a0 09 64 bc
       0.1822976 0.12221657 0.18271472 -0.01391831
000240 fe 07 31 be 0c da ba bd 6b 2f 06 3e 00 85 a3 ba
       -0.17288205 -0.091236204 0.13104026 -0.001247555
000250 9e e7 c3 bd 26 04 17 be 65 6d 38 be e8 53 26 be
       -0.09565662 -0.14747676 -0.1801048 -0.16242945
000260 28 e4 1f bd c6 25 d8 3d 4a 16 d5 3d 3d 0f 3e be
       -0.039035946 0.1055408 0.10404642 -0.185605
000270 26 db f5 3d 51 35 1a be 48 a6 26 bd e5 cf 9f bd
       0.1200469 -0.15059401 -0.040685922 -0.078033246
000280 7c d5 17 bd ac c5 1a bd fb d6 30 be 21 28 2a be
       -0.03706883 -0.03778617 -0.17269509 -0.1661687
000290 a8 b2 f6 bc 40 1b 23 3b 02 0c b3 bd ae 78 94 3d
       -0.030114487 0.0024888068 -0.08742525 0.0724958
0002a0 9e 5f 31 be 50 cb 54 bc 65 4e 2d 3e 01 c4 a0 bd
       -0.17321631 -0.012987927 0.16924436 -0.07849885
0002b0 2d f4 31 3e 0e bd 8e 3d d4 d8 31 be b2 5e f9 3d
       0.17378302 0.06969653 -0.1736787 0.12176265
0002c0 e0 ec b5 bc 20 f2 af bd 37 96 1d 3e 1c 40 1f be
       -0.022207677 -0.085911036 0.15389334 -0.155518
0002d0 f8 2b a9 3c 4c 0a 25 bd b9 ba 0c 3e f4 0a 5c 3d
       0.020650849 -0.040293023 0.13743104 0.053721383
0002e0 a2 62 bd 3d 7a 31 8b 3d 70 8f 3d bd 54 c7 25 bd
       0.09247328 0.06796546 -0.04627937 -0.040473297
0002f0 9c 66 22 be ae 8f d5 3d e9 77 1c 3e e5 d6 06 3e
       -0.15859455 0.10427795 0.15280117 0.13167913
000300 14 02 0b be c0 a0 0c 3c ac eb 0a be 74 f7 d8 bd
       -0.13575011 0.008583248 -0.13566464 -0.10594073
000310 90 aa e5 bd d2 b1 86 3d 35 df ea bd 80 95 89 bb
       -0.11214173 0.06576885 -0.114683546 -0.00419873
000320 20 a5 04 3c fe 11 fe 3d e4 f7 14 be 4b 4a 07 be
       0.0080960095 0.124057755 -0.14547688 -0.13211934
000330 54 dc e4 bd 63 ef 09 3e c2 ad 8d bd b3 39 26 3e
       -0.11174837 0.13470225 -0.06917907 0.16232948
000340 f2 85 8e 3d e8 a1 c7 3c 00 c6 bb ba d8 d3 1b bd
       0.06959142 0.024369195 -0.0014325976 -0.038043827
000350 d8 cd c5 3c a0 ff 33 bd 80 3d b1 ba 30 28 c9 3c
       0.024146006 -0.043944955 -0.0013522357 0.024555296
000360 f6 25 1a be 7b 94 ce bd b7 21 1f 3e 3c ee 1f be
       -0.15053543 -0.10086914 0.15540205 -0.15618223
000370 90 69 62 bc bd f2 42 3e 8e 60 8e 3d 40 8c b2 3b
       -0.013819113 0.1903791 0.0695201 0.005448848
000380 28 c8 2a be 46 3f c3 3d 4e 5e 0c be 64 c3 5f bd
       -0.16677916 0.09533553 -0.1370785 -0.0546297
000390 5a 3d 84 bd a0 77 e9 bc 40 f5 09 3b 3d 8b 22 3e
       -0.064570144 -0.028499424 0.0021050721 0.15873428
0003a0 98 d0 c4 3c 61 83 30 3e 56 19 f1 3d ee 2d f9 bd
       0.024025247 0.17237617 0.117724106 -0.121669635
0003b0 be c5 b0 3d a6 4e 0b be a6 0b a7 bd 88 d9 67 3d
       0.08631466 -0.13604221 -0.08156519 0.05660394
0003c0 26 24 82 3d bb d8 13 3e 28 c2 7d bd 00 86 a1 39
       0.06354551 0.14438145 -0.06195274 0.0003080815
0003d0 52 e9 ca 3d 73 95 3e be 1d 7a 0e 3e f0 f5 22 be
       0.099077836 -0.18611698 0.1391377 -0.1591413
0003e0 80 d4 2d 3b 24 05 06 bd eb 94 cf bd d8 5f d0 3c
       0.0026524365 -0.032719746 -0.10135826 0.025436327
0003f0 bf f5 22 3e a8 6d 66 bd 4d ff e9 bd 78 c4 91 bd
       0.15914057 -0.05625692 -0.11425648 -0.071175516

0.bias f4 [32]
000000 17 fc 41 3e 8a 6f a8 bd 50 ab 7c bc 4b 98 ac bd
       0.18943821 -0.082243994 -0.015421703 -0.08427485
000010 10 a1 d9 bc ac 52 2b 3d f8 90 d2 3c b0 e2 14 bd
       -0.026566058 0.04182689 0.025703892 -0.036349
000020 99 09 45 be a0 73 21 3c 60 cd ba bb d8 2b ed 3c
       -0.19241942 0.009854227 -0.005700752 0.02895157
000030 0d 01 17 3e 85 8d 3f 3e c5 d5 e9 bd 20 9c 44 bc
       0.14746495 0.18706329 -0.114177264 -0.012000114
000040 ae eb 9d bd b0 a0 35 be 23 66 0f be 11 f6 38 3e
       -0.07710968 -0.17737079 -0.14003806 0.18062617
000050 72 ce e5 3d 26 b6 d3 3d 16 0a db 3d 2e 91 1c be
       0.11221017 0.103374764 0.10695283 -0.15289757
000060 70 91 a5 3c 37 6a 37 3e 77 f6 db bd b5 4f 2f 3e
       0.020210952 0.17911611 -0.10740369 0.1712025
000070 6c 30 4f 3d 85 a5 0a 3e 00 d8 a8 bd 5a b4 b5 3d
       0.050583288 0.13539703 -0.08244324 0.0887229

1.weight f4 [32]
000000 00 00 80 3f 00 00 80 3f 00 00 80 3f 00 00 80 3f
       1.0 1.0 1.0 1.0
000010 00 00 80 3f 00 00 80 3f 00 00 80 3f 00 00 80 3f
       1.0 1.0 1.0 1.0
000020 00 00 80 3f 00 00 80 3f 00 00 80 3f 00 00 80 3f
       1.0 1.0 1.0 1.0
000030 00 00 80 3f 00 00 80 3f 00 00 80 3f 00 00 80 3f
       1.0 1.0 1.0 1.0
000040 00 00 80 3f 00 00 80 3f 00 00 80 3f 00 00 80 3f
       1.0 1.0 1.0 1.0
000050 00 00 80 3f 00 00 80 3f 00 00 80 3f 00 00 80 3f
       1.0 1.0 1.0 1.0
000060 00 00 80 3f 00 00 80 3f 00 00 80 3f 00 00 80 3f
       1.0 1.0 1.0 1.0
000070 00 00 80 3f 00 00 80 3f 00 00 80 3f 00 00 80 3f
       1.0 1.0 1.0 1.0

1.bias f4 [32]
000000 00 00 00 00 00 00 00 00 00 00 00 00 00 00 00 00
       0.0 0.0 0.0 0.0
000010 00 00 00 00 00 00 00 00 00 00 00 00 00 00 00 00
       0.0 0.0 0.0 0.0
000020 00 00 00 00 00 00 00 00 00 00 00 00 00 00 00 00
       0.0 0.0 0.0 0.0
000030 00 00 00 00 00 00 00 00 00 00 00 00 00 00 00 00
       0.0 0.0 0.0 0.0
000040 00 00 00 00 00 00 00 00 00 00 00 00 00 00 00 00
       0.0 0.0 0.0 0.0
000050 00 00 00 00 00 00 00 00 00 00 00 00 00 00 00 00
       0.0 0.0 0.0 0.0
000060 00 00 00 00 00 00 00 00 00 00 00 00 00 00 00 00
       0.0 0.0 0.0 0.0
000070 00 00 00 00 00 00 00 00 00 00 00 00 00 00 00 00
       0.0 0.0 0.0 0.0

1.running_mean f4 [32]
000000 00 00 00 00 00 00 00 00 00 00 00 00 00 00 00 00
       0.0 0.0 0.0 0.0
000010 00 00 00 00 00 00 00 00 00 00 00 00 00 00 00 00
       0.0 0.0 0.0 0.0
000020 00 00 00 00 00 00 00 00 00 00 00 00 00 00 00 00
       0.0 0.0 0.0 0.0
000030 00 00 00 00 00 00 00 00 00 00 00 00 00 00 00 00
       0.0 0.0 0.0 0.0
000040 00 00 00 00 00 00 00 00 00 00 00 00 00 00 00 00
       0.0 0.0 0.0 0.0
000050 00 00 00 00 00 00 00 00 00 00 00 00 00 00 00 00
       0.0 0.0 0.0 0.0
000060 00 00 00 00 00 00 00 00 00 00 00 00 00 00 00 00
       0.0 0.0 0.0 0.0
000070 00 00 00 00 00 00 00 00 00 00 00 00 00 00 00 00
       0.0 0.0 0.0 0.0

1.running_var f4 [32]
000000 00 00 80 3f 00 00 80 3f 00 00 80 3f 00 00 80 3f
       1.0 1.0 1.0 1.0
000010 00 00 80 3f 00 00 80 3f 00 00 80 3f 00 00 80 3f
       1.0 1.0 1.0 1.0
000020 00 00 80 3f 00 00 80 3f 00 00 80 3f 00 00 80 3f
       1.0 1.0 1.0 1.0
000030 00 00 80 3f 00 00 80 3f 00 00 80 3f 00 00 80 3f
       1.0 1.0 1.0 1.0
000040 00 00 80 3f 00 00 80 3f 00 00 80 3f 00 00 80 3f
       1.0 1.0 1.0 1.0
000050 00 00 80 3f 00 00 80 3f 00 00 80 3f 00 00 80 3f
       1.0 1.0 1.0 1.0
000060 00 00 80 3f 00 00 80 3f 00 00 80 3f 00 00 80 3f
       1.0 1.0 1.0 1.0
000070 00 00 80 3f 00 00 80 3f 00 00 80 3f 00 00 80 3f
       1.0 1.0 1.0 1.0

5.weight f4 [64, 32, 3, 3]
000000 3f f6 55 bd 20 34 75 bb de 02 a1 3c b6 c3 90 3c
       -0.05223679 -0.0037415102 0.019654687 0.017671447
000010 a5 f8 49 3d 59 2c 6d 3d 01 94 5b 3d ef 0b 22 3d
       0.04930939 0.05790362 0.053607944 0.039562162
000020 c1 b0 29 3d d8 23 f9 bb 55 4e 3b bd b8 32 b3 bc
       0.04142833 -0.00760315 -0.045729 -0.02187477
000030 c0 c4 d8 bb 5e 6d 02 bd 62 c0 f6 3c 7e 72 a9 3c
       -0.0066152513 -0.031842582 0.030121032 0.020684477
000040 6c c6 1b 3c 24 36 69 3c c1 05 54 3d 36 d2 af 3c
       0.009507757 0.0142341 0.0517633 0.021462541
000050 46 a8 53 bd ac 32 2f bd 06 c2 d4 3c a4 91 03 3c
       -0.05167415 -0.042772934 0.025971424 0.008030329
000060 ea 6a eb 3c d7 0c 71 bd 30 be 5e bd ff 01 14 3d
       0.028737504 -0.058850136 -0.054380596 0.036134716
000070 63 62 1a 3d 39 5c 5a bd 96 3b b7 3c c0 76 3c bd
       0.037691485 -0.053310607 0.02236728 -0.046011686
000080 7b c8 36 3d ee 78 97 3c 19 a7 6e 3d 68 fa 6d bd
       0.044624787 0.018490281 0.058264825 -0.058100134
000090 c5 59 68 bd f3 2e 23 3d c1 48 56 3d 3b e0 13 3d
       -0.056726236 0.039839696 0.052315477 0.036102515
0000a0 77 76 20 3d 34 4a 4b bd f3 b2 2e 3d e6 e0 63 bd
       0.039175477 -0.049631312 0.042651128 -0.0556344
0000b0 1c ae 57 3c 3f 19 1e bd c6 bb bf bc dc f2 2a 3c
       0.0131640695 -0.038598295 -0.023404967 0.010433879
0000c0 90 cb bd bc 10 c1 18 bc 1c c4 64 bd 30 92 63 bd
       -0.023168355 -0.009323373 -0.055851087 -0.055559337
0000d0 ba fc ba 3c 00 53 cc bc 23 d7 12 bd d8 78 be bc
       0.022825588 -0.024941921 -0.0358497 -0.023250982
0000e0 df 53 45 bd 4a f1 40 bd 31 6c 10 3d 76 56 f5 3c
       -0.04817569 -0.04710511 0.03525943 0.029948454
0000f0 7c 99 00 3c 41 d8 03 bd ce 99 a0 3c 60 7d 2d 3b
       0.0078490935 -0.032188658 0.01960459 0.0026472434
000100 28 7e 2c bd 8c c0 4f 3c a1 c4 5b 3d 01 67 6d bd
       -0.0421125 0.012680184 0.053654317 -0.05795956
000110 70 01 70 bd 98 64 f7 3b b1 bf 35 3d 53 dd 12 bd
       -0.05859512 0.0075498335 0.044372264 -0.035855602
000120 44 87 54 3c 03 ac 29 3d 76 d4 94 3c 4c ee 50 3c
       0.012971703 0.04142381 0.018167716 0.012752127
000130 6d cf 70 3d 27 3d 1d 3d 34 bf 07 bd d8 e5 a6 3b
       0.058791567 0.038388398 -0.03314133 0.0050933175
000140 7e 9b f6 3c 5d db 54 3d d9 22 70 bd 7f b2 02 3d
       0.030103441 0.051967014 -0.058626983 0.03190851
000150 02 26 8c bc 0e 58 6c bd 44 4d 56 3c 32 66 03 bd
       -0.017107967 -0.057701163 0.013079945 -0.032079883
000160 6c d0 08 3c a0 b3 1c bd 37 a1 35 bd 28 d6 a3 bb
       0.008350473 -0.03825724 -0.0443432 -0.0049998946
000170 50 28 a2 bc 95 29 0d 3d e8 79 a6 3b 1b 65 3c 3d
       -0.019794613 0.034463484 0.0050804503 0.04599486
000180 f4 ec 34 3c 38 39 9b bc 0b 7b 23 3d 80 06 53 3b
       0.011042822 -0.018948182 0.039912265 0.003219992
000190 54 34 35 3c ca 40 9b bc 00 bf 5d 39 a4 a0 39 bc
       0.011059839 -0.018951792 0.00021147355 -0.011329804
0001a0 58 28 a4 bb 22 3b 3c bd 80 fe bd b9 b8 56 48 bd
       -0.005009692 -0.04595483 -0.00036238506 -0.048910826
0001b0 f4 b1 4f bc f7 e0 0b 3d 42 d4 27 bd 44 b0 22 bd
       -0.012676705 0.03415009 -0.04097391 -0.03971888
0001c0 a4 bc 6b bc 5a 54 84 bc ac 6f 23 3c 0c 47 20 3c
       -0.014388237 -0.016153503 0.009975355 0.009782564
0001d0 e6 c8 f4 3c 82 44 26 bd 98 43 88 bb 73 fd 06 3d
       0.029880952 -0.040592678 -0.0041584484 0.03295655
0001e0 cd c4 50 3d 30 d9 8c bb bf a7 0b bd 72 c3 8a 3c
       0.050968934 -0.0042983517 -0.034095522 0.016938899
0001f0 d3 72 09 3d 02 ca 16 bd 22 0f 0c bd 52 5c d5 3c
       0.03355677 -0.036813743 -0.03419412 0.026044998
000200 d8 49 87 bb 9f f6 63 bd 00 2a 0b bd 12 c2 c3 3c
       -0.004128676 -0.055655118 -0.0339756 0.02389625
000210 ee b9 a3 bc d3 97 26 3d d3 cd 3e 3d 24 71 0c 3c
       -0.01998612 0.040672135 0.046583008 0.008571897
000220 e8 ae 98 bb 56 3a 99 bc c0 45 43 bb cc ba 2f 3c
       -0.0046595223 -0.018704575 -0.0029796213 0.010725688
000230 c7 5c 38 bd 30 bc 66 bc 43 c3 48 bd a5 22 14 3d
       -0.045010354 -0.014082953 -0.04901434 0.036165852
000240 cc b4 19 bd fd 7d 5c 3d f8 de 78 bc c8 44 0a bd
       -0.037525937 0.05383109 -0.015189879 -0.033757
000250 6a ec e7 3c 24 ed 0f 3c 6d 21 27 3d 2e 85 c9 3c
       0.028310973 0.008784566 0.04080336 0.024599638
000260 c1 82 68 bd 47 a8 18 3d 18 ce 35 bc f6 58 d5 bc
       -0.05676532 0.037269857 -0.0110965 -0.026043396
000270 ab 46 19 3d cf 07 30 3d 50 23 54 bd 90 98 ae bb
       0.03742091 0.042976197 -0.05179149 -0.0053282455
000280 a9 34 46 3d 4e f3 ba 3c 71 56 4b 3d 4a 6d a5 bc
       0.048390064 0.022821095 0.049642984 -0.020193715
000290 d8 24 05 bd 0b 8c 4f 3d 42 35 c9 3c 55 b3 67 3d
       -0.03250584 0.050670665 0.024561528 0.05656751
0002a0 38 a1 c9 bc fc f7 1a bd c0 52 e2 bb 47 42 63 bd
       -0.024613008 -0.037834153 -0.006906837 -0.05548313
0002b0 aa 36 bd 3c 11 06 32 3d 7c c2 67 3c 90 c8 be bb
       0.023097355 0.043462817 0.01414549 -0.0058222488
0002c0 b2 55 ef 3c f9 33 19 bd 9f 1b 6c 3d 70 fe 6f bd
       0.029215667 -0.03740308 0.05764353 -0.05859226
0002d0 75 35 67 bd 5c 22 64 bc 21 27 45 3d 88 54 c1 3b
       -0.056447465 -0.013924208 0.04813302 0.0058999695
0002e0 ca 62 b9 3c fa ea 30 bd 5e 0a b0 3c 30 c3 d7 bb
       0.022630114 -0.04319284 0.021489318 -0.0065845475
0002f0 1e 7c c1 3c 45 75 2a 3d fe d3 d1 3c 88 3f a4 bb
       0.023618754 0.041615743 0.025613781 -0.0050124563
000300 50 e1 6d bb 2c 60 17 bd a6 99 ae bc 27 d8 1c 3d
       -0.0036297627 -0.03695695 -0.0213135 0.038292076
000310 80 91 c1 bc c3 e4 15 3d c8 69 bf bc 58 d9 60 bc
       -0.02362895 0.036595117 -0.02336587 -0.013723694
000320 80 5f a4 3a a7 7c 5d bd c0 3c 1a ba b0 9f c2 bb
       0.0012540668 -0.054073956 -0.0005883686 -0.0059394464
000330 70 76 ad bb ac fe 40 bc 35 48 3e 3d b3 1e 32 3d
       -0.00529366 -0.0117794685 0.04645558 0.04348631
000340 38 95 23 bd 4e 3c e0 3c 61 51 3d bd 63 79 4d bd
       -0.039937228 0.027372506 -0.046220187 -0.05016459
000350 ea 8e 93 3c 40 04 63 3a ee 30 e1 bc b2 ca 68 bd
       0.018012483 0.0008659996 -0.027489152 -0.05683393
000360 ae e0 ba bc 46 3a a1 3c 01 67 5f bd d8 78 6a bd
       -0.022812214 0.019681107 -0.05454159 -0.05724415
000370 88 f9 f4 3b 48 e0 2d bd 31 73 53 bd 14 fc b9 bc
       0.0074760355 -0.04245022 -0.051623527 -0.022703208
000380 a4 6f 1b bc 05 53 5b bd 84 29 21 bd d0 34 7d 3b
       -0.009487066 -0.05354597 -0.039346233 0.0038636215
000390 46 98 63 bd 44 b2 07 bc a3 d8 1b bd b4 51 27 bd
       -0.05556514 -0.008282248 -0.038048398 -0.040849403
0003a0 26 b9 bd 3c 89 c5 39 bd 02 e9 36 bd 85 a4 09 3d
       0.023159575 -0.0453544 -0.044655807 0.033604164
0003b0 0c 81 34 3c 11 cf 5b 3d 46 07 81 bc 01 29 e9 bc
       0.011017095 0.05366427 -0.015750539 -0.028461935
0003c0 08 b2 b2 bb 00 4e 9c 39 37 12 38 3d b8 69 70 bd
       -0.005453352 0.00029812753 0.044939246 -0.05869457
0003d0 c8 7a 89 bb 0e 88 d5 3c 91 e9 04 bd f1 49 f5 bc
       -0.004195545 0.026065852 -0.03244931 -0.029942485
0003e0 3e 48 e9 3c 48 44 67 bd 04 c4 64 3c 62 db 3a bd
       0.02847683 -0.056461602 0.013962749 -0.045619376
0003f0 da f0 ef 3c 2e 5f 4e bd 83 63 14 3d 79 7a 64 bd
       0.029289652 -0.05038374 0.036227714 -0.05578086

5.bias f4 [64]
000000 f0 de 05 bc ea ba c7 3c 83 9a 4b bd b4 5d 0d 3c
       -0.008170828 0.02438112 -0.0497079 0.008628298
000010 6c 55 4d 3c b6 90 6c bd 44 39 0b 3c a2 17 3d bd
       0.012532573 -0.057755195 0.00849754 -0.046165116
000020 48 6e 58 bd b5 e6 53 3d 02 27 f8 3c 21 c8 2c 3d
       -0.052839547 0.05173369 0.030292038 0.042183045
000030 4d f6 56 3d bd ff 01 bd 66 1e ce bc 00 c0 eb b6
       0.052480984 -0.03173803 -0.02516098 -7.0258975e-06
000040 b2 e8 c1 3c d8 a6 c6 3b 08 d0 b0 bb cb 2c 71 3d
       0.023670528 0.00606237 -0.005395893 0.05888061
000050 e1 7f eb bc c2 79 dc 3c 42 7b c7 3c 34 8b e9 bc
       -0.0287475 0.026913527 0.024350766 -0.02850876
000060 9f 59 09 3d d7 4a 26 3d 2c cc 3e bc 54 46 23 bd
       0.033532735 0.040598717 -0.011645358 -0.039861992
000070 6f 54 14 3d a5 8f 36 3d 86 55 b5 3c 68 82 ee 3b
       0.036213335 0.044570584 0.022135507 0.007278729
000080 9a 83 eb 3c 1a 5f 94 3c 50 e3 94 bc e4 cd 31 bd
       0.028749276 0.018111754 -0.018174797 -0.043409243
000090 c0 e1 d2 bc b6 b4 aa 3c 78 63 c3 bc 9a 37 b8 3c
       -0.025742412 0.020838123 -0.023851141 0.02248745
0000a0 d1 95 fa bc 12 ba 35 bd 25 2b 2b 3d d9 9a 18 bd
       -0.030589016 -0.044366904 0.041789193 -0.03725705
0000b0 2a b5 93 3c 87 84 4c 3d 50 ca 61 3b 37 d3 16 3d
       0.018030722 0.049931075 0.0034452863 0.036822524
0000c0 dc 53 7f bc f6 28 50 bd 59 d9 e6 bc 5c 8b 94 bc
       -0.0155839585 -0.050820313 -0.028179811 -0.018132858
0000d0 f5 54 0c bd 1a 15 11 bd 2a 0f d4 3c dd e3 5f 3d
       -0.03426071 -0.035420515 0.025886137 0.054660667
0000e0 79 f1 19 3d 86 3a a2 3c 17 d9 3f bd 84 48 20 bc
       0.037583802 0.019803297 -0.046837892 -0.009782914
0000f0 26 92 b1 3c a3 48 54 3d e5 28 ec bc b1 03 0f 3d
       0.021676134 0.051827084 -0.028828094 0.03491563

6.weight f4 [64]
000000 00 00 80 3f 00 00 80 3f 00 00 80 3f 00 00 80 3f
       1.0 1.0 1.0 1.0
000010 00 00 80 3f 00 00 80 3f 00 00 80 3f 00 00 80 3f
       1.0 1.0 1.0 1.0
000020 00 00 80 3f 00 00 80 3f 00 00 80 3f 00 00 80 3f
       1.0 1.0 1.0 1.0
000030 00 00 80 3f 00 00 80 3f 00 00 80 3f 00 00 80 3f
       1.0 1.0 1.0 1.0
000040 00 00 80 3f 00 00 80 3f 00 00 80 3f 00 00 80 3f
       1.0 1.0 1.0 1.0
000050 00 00 80 3f 00 00 80 3f 00 00 80 3f 00 00 80 3f
       1.0 1.0 1.0 1.0
000060 00 00 80 3f 00 00 80 3f 00 00 80 3f 00 00 80 3f
       1.0 1.0 1.0 1.0
000070 00 00 80 3f 00 00 80 3f 00 00 80 3f 00 00 80 3f
       1.0 1.0 1.0 1.0
000080 00 00 80 3f 00 00 80 3f 00 00 80 3f 00 00 80 3f
       1.0 1.0 1.0 1.0
000090 00 00 80 3f 00 00 80 3f 00 00 80 3f 00 00 80 3f
       1.0 1.0 1.0 1.0
0000a0 00 00 80 3f 00 00 80 3f 00 00 80 3f 00 00 80 3f
       1.0 1.0 1.0 1.0
0000b0 00 00 80 3f 00 00 80 3f 00 00 80 3f 00 00 80 3f
       1.0 1.0 1.0 1.0
0000c0 00 00 80 3f 00 00 80 3f 00 00 80 3f 00 00 80 3f
       1.0 1.0 1.0 1.0
0000d0 00 00 80 3f 00 00 80 3f 00 00 80 3f 00 00 80 3f
       1.0 1.0 1.0 1.0
0000e0 00 00 80 3f 00 00 80 3f 00 00 80 3f 00 00 80 3f
       1.0 1.0 1.0 1.0
0000f0 00 00 80 3f 00 00 80 3f 00 00 80 3f 00 00 80 3f
       1.0 1.0 1.0 1.0

6.bias f4 [64]
000000 00 00 00 00 00 00 00 00 00 00 00 00 00 00 00 00
       0.0 0.0 0.0 0.0
000010 00 00 00 00 00 00 00 00 00 00 00 00 00 00 00 00
       0.0 0.0 0.0 0.0
000020 00 00 00 00 00 00 00 00 00 00 00 00 00 00 00 00
       0.0 0.0 0.0 0.0
000030 00 00 00 00 00 00 00 00 00 00 00 00 00 00 00 00
       0.0 0.0 0.0 0.0
000040 00 00 00 00 00 00 00 00 00 00 00 00 00 00 00 00
       0.0 0.0 0.0 0.0
000050 00 00 00 00 00 00 00 00 00 00 00 00 00 00 00 00
       0.0 0.0 0.0 0.0
000060 00 00 00 00 00 00 00 00 00 00 00 00 00 00 00 00
       0.0 0.0 0.0 0.0
000070 00 00 00 00 00 00 00 00 00 00 00 00 00 00 00 00
       0.0 0.0 0.0 0.0
000080 00 00 00 00 00 00 00 00 00 00 00 00 00 00 00 00
       0.0 0.0 0.0 0.0
000090 00 00 00 00 00 00 00 00 00 00 00 00 00 00 00 00
       0.0 0.0 0.0 0.0
0000a0 00 00 00 00 00 00 00 00 00 00 00 00 00 00 00 00
       0.0 0.0 0.0 0.0
0000b0 00 00 00 00 00 00 00 00 00 00 00 00 00 00 00 00
       0.0 0.0 0.0 0.0
0000c0 00 00 00 00 00 00 00 00 00 00 00 00 00 00 00 00
       0.0 0.0 0.0 0.0
0000d0 00 00 00 00 00 00 00 00 00 00 00 00 00 00 00 00
       0.0 0.0 0.0 0.0
0000e0 00 00 00 00 00 00 00 00 00 00 00 00 00 00 00 00
       0.0 0.0 0.0 0.0
0000f0 00 00 00 00 00 00 00 00 00 00 00 00 00 00 00 00
       0.0 0.0 0.0 0.0

6.running_mean f4 [64]
000000 00 00 00 00 00 00 00 00 00 00 00 00 00 00 00 00
       0.0 0.0 0.0 0.0
000010 00 00 00 00 00 00 00 00 00 00 00 00 00 00 00 00
       0.0 0.0 0.0 0.0
000020 00 00 00 00 00 00 00 00 00 00 00 00 00 00 00 00
       0.0 0.0 0.0 0.0
000030 00 00 00 00 00 00 00 00 00 00 00 00 00 00 00 00
       0.0 0.0 0.0 0.0
000040 00 00 00 00 00 00 00 00 00 00 00 00 00 00 00 00
       0.0 0.0 0.0 0.0
000050 00 00 00 00 00 00 00 00 00 00 00 00 00 00 00 00
       0.0 0.0 0.0 0.0
000060 00 00 00 00 00 00 00 00 00 00 00 00 00 00 00 00
       0.0 0.0 0.0 0.0
000070 00 00 00 00 00 00 00 00 00 00 00 00 00 00 00 00
       0.0 0.0 0.0 0.0
000080 00 00 00 00 00 00 00 00 00 00 00 00 00 00 00 00
       0.0 0.0 0.0 0.0
000090 00 00 00 00 00 00 00 00 00 00 00 00 00 00 00 00
       0.0 0.0 0.0 0.0
0000a0 00 00 00 00 00 00 00 00 00 00 00 00 00 00 00 00
       0.0 0.0 0.0 0.0
0000b0 00 00 00 00 00 00 00 00 00 00 00 00 00 00 00 00
       0.0 0.0 0.0 0.0
0000c0 00 00 00 00 00 00 00 00 00 00 00 00 00 00 00 00
       0.0 0.0 0.0 0.0
0000d0 00 00 00 00 00 00 00 00 00 00 00 00 00 00 00 00
       0.0 0.0 0.0 0.0
0000e0 00 00 00 00 00 00 00 00 00 00 00 00 00 00 00 00
       0.0 0.0 0.0 0.0
0000f0 00 00 00 00 00 00 00 00 00 00 00 00 00 00 00 00
       0.0 0.0 0.0 0.0

6.running_var f4 [64]
000000 00 00 80 3f 00 00 80 3f 00 00 80 3f 00 00 80 3f
       1.0 1.0 1.0 1.0
000010 00 00 80 3f 00 00 80 3f 00 00 80 3f 00 00 80 3f
       1.0 1.0 1.0 1.0
000020 00 00 80 3f 00 00 80 3f 00 00 80 3f 00 00 80 3f
       1.0 1.0 1.0 1.0
000030 00 00 80 3f 00 00 80 3f 00 00 80 3f 00 00 80 3f
       1.0 1.0 1.0 1.0
000040 00 00 80 3f 00 00 80 3f 00 00 80 3f 00 00 80 3f
       1.0 1.0 1.0 1.0
000050 00 00 80 3f 00 00 80 3f 00 00 80 3f 00 00 80 3f
       1.0 1.0 1.0 1.0
000060 00 00 80 3f 00 00 80 3f 00 00 80 3f 00 00 80 3f
       1.0 1.0 1.0 1.0
000070 00 00 80 3f 00 00 80 3f 00 00 80 3f 00 00 80 3f
       1.0 1.0 1.0 1.0
000080 00 00 80 3f 00 00 80 3f 00 00 80 3f 00 00 80 3f
       1.0 1.0 1.0 1.0
000090 00 00 80 3f 00 00 80 3f 00 00 80 3f 00 00 80 3f
       1.0 1.0 1.0 1.0
0000a0 00 00 80 3f 00 00 80 3f 00 00 80 3f 00 00 80 3f
       1.0 1.0 1.0 1.0
0000b0 00 00 80 3f 00 00 80 3f 00 00 80 3f 00 00 80 3f
       1.0 1.0 1.0 1.0
0000c0 00 00 80 3f 00 00 80 3f 00 00 80 3f 00 00 80 3f
       1.0 1.0 1.0 1.0
0000d0 00 00 80 3f 00 00 80 3f 00 00 80 3f 00 00 80 3f
       1.0 1.0 1.0 1.0
0000e0 00 00 80 3f 00 00 80 3f 00 00 80 3f 00 00 80 3f
       1.0 1.0 1.0 1.0
0000f0 00 00 80 3f 00 00 80 3f 00 00 80 3f 00 00 80 3f
       1.0 1.0 1.0 1.0

10.weight f4 [64, 64, 3, 3]
000000 92 16 c4 3c 3c ec 14 bc 40 75 1c bd 46 57 9d 3c
       0.023936544 -0.009089526 -0.038197756 0.019206654
000010 aa 86 ae 3c 4b 64 07 bd 51 f6 04 3d 50 c4 21 bb
       0.021304447 -0.03305463 0.032461468 -0.0024683662
000020 27 15 00 bd 70 f8 6c 3b c2 90 bf 3c 80 44 c6 3a
       -0.031270172 0.0036158822 0.023384456 0.0015126616
000030 54 1c 04 bd 60 87 b7 bc 22 1c c9 3c a6 ed 91 3c
       -0.03225358 -0.022403419 0.024549548 0.017813515
000040 fa 86 da 3c 94 2e 7b 3c e6 12 dd 3c e0 52 15 bc
       0.02667569 0.015330929 0.02698655 -0.009113997
000050 50 e7 9e 3c fc bb 3e 3c 80 7c ed 3b ab 2d 18 3d
       0.019397408 0.011641499 0.0072475076 0.037152927
000060 96 6d 85 bc 47 e3 01 3d c0 87 85 bc 35 e4 08 3d
       -0.016287606 0.03171089 -0.016300082 0.03342076
000070 40 de e0 bb 41 7a 00 3d 20 bb 5f bc 00 a4 5f 3b
       -0.0068624318 0.03136659 -0.013655454 0.0034124851
000080 e9 77 15 3d 80 22 6e bb c0 5c 60 bb d0 a7 8f bc
       0.03649131 -0.0036336482 -0.003423497 -0.017536074
000090 fa a4 f4 3c 22 98 b3 3c 3c 98 16 bc 10 08 36 bc
       0.029863823 0.021923129 -0.009191569 -0.011110321
0000a0 25 50 18 3d 32 17 cf 3c 21 4e 0a 3d a3 e1 b3 bc
       0.037185807 0.025279615 0.033765916 -0.021958178
0000b0 18 e5 80 bc 26 bc df bc c0 dc fb bc 08 97 96 bb
       -0.01573424 -0.027311396 -0.03074491 -0.004595641
0000c0 00 2f db ba 26 e9 ab bc e6 b1 54 bc 70 41 64 3b
       -0.0016722381 -0.020985197 -0.012981867 0.0034829043
0000d0 2c 0c 06 bc 70 b8 03 bd 4d 5d 0c 3d 0c dd 63 bc
       -0.008181613 -0.032158315 0.034268666 -0.013907682
0000e0 18 7a ea 3b 48 51 a3 3c 60 8e 1c bd a8 dd b0 bb
       0.007155668 0.019936219 -0.038221717 -0.0053975172
0000f0 20 2c 03 bd a7 cd 14 3d 43 33 9c bc 0a 49 e9 3c
       -0.032024503 0.036328938 -0.019067412 0.02847721
000100 00 26 2d 3b 46 31 91 bc 66 60 89 3c b7 37 08 bd
       0.0026420355 -0.01772369 0.0167696 -0.03325626
000110 26 5d 78 bc 38 8e a6 bb 09 a4 24 3d d7 d5 14 bd
       -0.015158927 -0.0050828718 0.0401955 -0.036336746
000120 f4 3b 7d 3c 09 c9 28 3d f0 ec 13 bc e0 74 b5 bc
       0.0154561885 0.041207347 -0.009028658 -0.022150457
000130 38 1a e0 bc 30 a4 0a bc 7d 67 0a 3d 83 6d d8 bc
       -0.027356252 -0.008461997 0.0337901 -0.026419407
000140 a9 a8 22 3d a3 92 06 bd 97 96 0c 3d d0 35 1f 3b
       0.039711628 -0.032854687 0.0343233 0.002429355
000150 ac f7 40 bc 78 03 0b bd b0 90 a9 bc ce 48 d7 bc
       -0.0117778 -0.033938855 -0.020698875 -0.026279833
000160 47 24 16 bd 00 c4 64 bc a2 e2 fa 3c fc 6d 17 bd
       -0.03665569 -0.013962746 0.030625645 -0.036970124
000170 cd 73 06 3d 44 20 34 3c d2 80 be 3c 18 40 9b bb
       0.03282528 0.010994021 0.023254786 -0.004737865
000180 06 75 a2 bc 28 7e 99 3c 2e a5 f9 3c 94 f5 40 3c
       -0.019831192 0.018736914 0.030474272 0.0117773
000190 a8 46 a5 3c d1 a1 2a 3d 18 17 fb 3b 7e e3 a9 bc
       0.020175293 0.041658226 0.007662665 -0.02073836
0001a0 26 98 b5 3c f8 7b b9 bc 4d 50 10 3d 08 62 dc 3b
       0.022167277 -0.02264212 0.03523283 0.0067255534
0001b0 1a 2c 9d 3c 60 c2 d1 3b 4b 06 11 3d 46 bd b6 3c
       0.019186068 0.006401345 0.035406392 0.02230705
0001c0 d6 f4 e9 3c f8 49 a2 bc 88 80 f1 3b be 76 ea 3c
       0.02855913 -0.019810662 0.0073700584 0.028621074
0001d0 de 87 ef 3c 4c d6 5d bc e9 29 01 3d cc 56 1b bd
       0.029239591 -0.013539862 0.03153411 -0.037924573
0001e0 15 08 03 3d 08 85 88 bc f0 49 eb bc 2d 0d 0f 3d
       0.03199013 -0.016664997 -0.02872178 0.034924675
0001f0 c0 43 13 ba 06 77 85 bc 1e cb b3 3c 02 ec f3 3c
       -0.00056177005 -0.016292106 0.02194744 0.029775623
000200 58 10 a3 3b 13 81 f4 bc 5b db 98 bc 98 c5 bb bc
       0.0049763136 -0.029846704 -0.018659284 -0.022921368
000210 bc 44 73 3c b2 3f 20 bd 9e 4e b7 bc 38 87 24 bd
       0.0148479305 -0.039123245 -0.022376355 -0.040168017
000220 80 58 d7 b9 45 b4 1a 3d 94 3a 5b 3c 88 e5 8c 3b
       -0.00041073933 0.037769575 0.013380665 0.004299823
000230 da b3 9d 3c 30 43 da bc ec 6d 18 bc c7 44 05 3d
       0.019250799 -0.026643366 -0.009303551 0.032536294
000240 90 ee 0e bd fa c5 26 bd 0c b8 60 bc 3c f6 18 bd
       -0.03489548 -0.04071615 -0.013715755 -0.037344202
000250 60 1a 10 bc 26 9b e2 3c 80 78 fa b9 f4 00 32 3c
       -0.008795351 0.027661871 -0.00047773495 0.010864485
000260 f8 5a b9 3b 48 99 ea bc 26 81 ab bc 80 cb 9f 3b
       0.0056565963 -0.028637543 -0.020935606 0.004876554
000270 b5 3c 15 3d 7e f2 f9 bc 9a 88 e0 3c 4e d2 d0 bc
       0.036434848 -0.030511137 0.027408887 -0.025490906
000280 ba bd 13 bd ec bf 00 3c aa b3 f3 3c 00 24 d4 3b
       -0.03606961 0.007858258 0.029748756 0.006474018
000290 da 4a d0 3c 50 5d 4c 3b a0 42 be bb c0 a4 23 3c
       0.025426317 0.0031183548 -0.005806282 0.00998801
0002a0 fc f7 26 3c 40 74 34 bc e4 03 1e 3c 00 9a 27 3b
       0.01019096 -0.011014044 0.009644482 0.002557397
0002b0 94 ec 19 bd 6a 98 fa 3c 3c 50 1f bd fc a5 5a 3c
       -0.037579134 0.030590255 -0.038894877 0.013345238
0002c0 73 3c 05 bd dc 17 04 bc fa 88 9c 3c 6c 71 78 3c
       -0.032528352 -0.008062329 0.019108284 0.015163761
0002d0 ad b5 01 3d 70 59 7c bc 5c a9 51 3c 66 80 98 3c
       0.0316674 -0.015402183 0.012796726 0.018615913
0002e0 00 ea 1d bd c6 da c5 bc 76 25 b1 3c 78 3a f0 3b
       -0.038553238 -0.02415217 0.021624308 0.007331189
0002f0 c8 0d e1 bb 0c 97 32 bc ae 0d 87 3c 42 b2 ef 3c
       -0.006868098 -0.01090027 0.016486015 0.029259805
000300 6a 3c fd 3c 1a 9d c0 3c 74 74 3f 3c 1b 5a 05 bd
       0.030912597 0.023512412 0.011685479 -0.032556634
000310 ce 82 c4 3c 98 02 95 bc ae 26 c3 3c a6 db ee bc
       0.023988154 -0.018189713 0.023822155 -0.02915747
000320 10 8b 5f 3c e0 9e 9b ba 3a 1c f7 3c a0 16 95 3b
       0.013643995 -0.001187291 0.030164827 0.0045498163
000330 5a 4c a8 3c 77 1a 1f bd 94 e4 4d 3c f4 d1 27 bd
       0.02054422 -0.0388436 0.012566704 -0.04097171
000340 2e 1a 1c bd 4c 6b 29 bd 18 3d f6 bc ee 4e 8e bc
       -0.038110904 -0.041362092 -0.030058429 -0.017371621
000350 e4 37 30 3c 68 41 b4 3b 36 1f 49 bc 84 b1 7c 3c
       0.010755513 0.005500961 -0.012275508 0.015423182
000360 f7 f6 1d bd 85 80 1a 3d 6e 82 b6 bc a0 a9 8e bc
       -0.038565602 0.037720222 -0.02227899 -0.017414868
000370 60 95 bb 3a 38 be 82 bc d4 28 7d 3c 18 c1 87 bb
       0.0014311485 -0.015959844 0.015451629 -0.0041428916
000380 4a ff a5 3c 68 be cb bb db 31 83 bc b8 89 b8 3b
       0.020263333 -0.0062177666 -0.016014984 0.0056316517
000390 78 72 82 3c 62 0c b8 3c 00 88 b8 38 c6 30 d3 3c
       0.015923724 0.022466842 8.799136e-05 0.025780093
0003a0 00 be b4 bc 60 1b 32 bc 6a e0 29 bd 37 2b 01 bd
       -0.022063255 -0.0108707845 -0.041473784 -0.031535354
0003b0 38 4c 12 bd 88 34 e9 bc 44 2b 62 3c 5e 2e c7 bc
       -0.03571722 -0.028467432 0.013804261 -0.024314102
0003c0 da 21 26 bd 68 27 1f bd fa f0 0c bd e4 cb 3f 3c
       -0.040559627 -0.03885594 -0.0344095 0.011706326
0003d0 9c f7 77 bc 60 95 b5 3a c2 3f 8c 3c ad c4 0a 3d
       -0.015134718 0.0013853721 0.017120246 0.03387897
0003e0 83 8d d2 bc 3a a2 f5 3c 08 7b 9b 3c 00 8c 4b b9
       -0.025702244 0.029984582 0.018979564 -0.00019411743
0003f0 c0 e5 7f bc a0 47 47 3c e0 ce 85 3a f4 a3 75 3c
       -0.0156187415 0.012163073 0.0010208748 0.014992703

10.bias f4 [64]
000000 ad 4c 1f 3d c2 53 0a bd a0 a6 c3 ba 46 3f 91 3c
       0.038891483 -0.033771284 -0.0014926977 0.017730366
000010 18 21 af 3b 74 d8 4f 3c b4 2a 5f 3c bb 55 1a bd
       0.0053445213 0.012685884 0.013621021 -0.037679415
000020 29 d4 1b 3d c2 91 dd 3c 4b be de bc 6a d0 eb 3c
       0.03804413 0.027047042 -0.027190348 0.028785903
000030 ec ee 6b 3c d0 db 68 bc 78 34 da 3b 00 4e 79 bb
       0.014400225 -0.014212564 0.006659087 -0.0038040876
000040 80 51 d8 39 c0 67 5e 3c 92 9d f2 3c 47 2f 13 3d
       0.00041259453 0.013574541 0.029616151 0.03593376
000050 20 f0 84 3a 94 78 56 3c ae ab b6 3c 72 e2 b6 3c
       0.0010142364 0.0130902715 0.02229866 0.022324774
000060 cb 23 d4 bc 98 ad a7 3b 43 ad 25 3d dd c7 14 3d
       -0.025895974 0.0051171295 0.04044844 0.036323417
000070 e0 57 aa 3c 54 de 26 3c 4a 7f cd 3c b1 c4 1d 3d
       0.020793855 0.010184843 0.02508511 0.038517658
000080 b0 f7 4f bb c3 b4 06 3d 87 ef 11 3d b0 cd 94 bc
       -0.0031733327 0.03288723 0.03562882 -0.018164486
000090 00 4d 6f 3b c2 ce 8a 3c 00 3d 4d bc e2 6f fb 3c
       0.0036514401 0.016944293 -0.012526751 0.030692998
0000a0 e0 1e 04 bd cb b1 ca bc 0d d8 26 3d 16 49 e0 bc
       -0.032256007 -0.024742981 0.040733386 -0.0273786
0000b0 4d d8 05 3d f9 24 18 3d 32 1a 8e 3c f0 8a 1c 3c
       0.032676984 0.037144635 0.017346475 0.00955461
0000c0 d8 fe e4 bb 60 14 e5 ba 80 5f cb 3a c4 28 1f bc
       -0.0069883876 -0.0017477386 0.0015516132 -0.009714309
0000d0 20 f3 f0 3a 00 d9 4f 3c fa fd 9a 3c 15 54 04 3d
       0.0018383004 0.012686014 0.018919934 0.03230675
0000e0 fe 8c 8d 3c 83 c5 02 3d bc b4 1e 3c a0 c4 25 3c
       0.017279144 0.031926643 0.009686645 0.01011768
0000f0 6e 3b de 3c 50 17 77 3b 23 17 e5 bc e3 36 bc bc
       0.027127948 0.0037703104 -0.027965134 -0.02297539

11.weight f4 [64]
000000 00 00 80 3f 00 00 80 3f 00 00 80 3f 00 00 80 3f
       1.0 1.0 1.0 1.0
000010 00 00 80 3f 00 00 80 3f 00 00 80 3f 00 00 80 3f
       1.0 1.0 1.0 1.0
000020 00 00 80 3f 00 00 80 3f 00 00 80 3f 00 00 80 3f
       1.0 1.0 1.0 1.0
000030 00 00 80 3f 00 00 80 3f 00 00 80 3f 00 00 80 3f
       1.0 1.0 1.0 1.0
000040 00 00 80 3f 00 00 80 3f 00 00 80 3f 00 00 80 3f
       1.0 1.0 1.0 1.0
000050 00 00 80 3f 00 00 80 3f 00 00 80 3f 00 00 80 3f
       1.0 1.0 1.0 1.0
000060 00 00 80 3f 00 00 80 3f 00 00 80 3f 00 00 80 3f
       1.0 1.0 1.0 1.0
000070 00 00 80 3f 00 00 80 3f 00 00 80 3f 00 00 80 3f
       1.0 1.0 1.0 1.0
000080 00 00 80 3f 00 00 80 3f 00 00 80 3f 00 00 80 3f
       1.0 1.0 1.0 1.0
000090 00 00 80 3f 00 00 80 3f 00 00 80 3f 00 00 80 3f
       1.0 1.0 1.0 1.0
0000a0 00 00 80 3f 00 00 80 3f 00 00 80 3f 00 00 80 3f
       1.0 1.0 1.0 1.0
0000b0 00 00 80 3f 00 00 80 3f 00 00 80 3f 00 00 80 3f
       1.0 1.0 1.0 1.0
0000c0 00 00 80 3f 00 00 80 3f 00 00 80 3f 00 00 80 3f
       1.0 1.0 1.0 1.0
0000d0 00 00 80 3f 00 00 80 3f 00 00 80 3f 00 00 80 3f
       1.0 1.0 1.0 1.0
0000e0 00 00 80 3f 00 00 80 3f 00 00 80 3f 00 00 80 3f
       1.0 1.0 1.0 1.0
0000f0 00 00 80 3f 00 00 80 3f 00 00 80 3f 00 00 80 3f
       1.0 1.0 1.0 1.0

11.bias f4 [64]
000000 00 00 00 00 00 00 00 00 00 00 00 00 00 00 00 00
       0.0 0.0 0.0 0.0
000010 00 00 00 00 00 00 00 00 00 00 00 00 00 00 00 00
       0.0 0.0 0.0 0.0
000020 00 00 00 00 00 00 00 00 00 00 00 00 00 00 00 00
       0.0 0.0 0.0 0.0
000030 00 00 00 00 00 00 00 00 00 00 00 00 00 00 00 00
       0.0 0.0 0.0 0.0
000040 00 00 00 00 00 00 00 00 00 00 00 00 00 00 00 00
       0.0 0.0 0.0 0.0
000050 00 00 00 00 00 00 00 00 00 00 00 00 00 00 00 00
       0.0 0.0 0.0 0.0
000060 00 00 00 00 00 00 00 00 00 00 00 00 00 00 00 00
       0.0 0.0 0.0 0.0
000070 00 00 00 00 00 00 00 00 00 00 00 00 00 00 00 00
       0.0 0.0 0.0 0.0
000080 00 00 00 00 00 00 00 00 00 00 00 00 00 00 00 00
       0.0 0.0 0.0 0.0
000090 00 00 00 00 00 00 00 00 00 00 00 00 00 00 00 00
       0.0 0.0 0.0 0.0
0000a0 00 00 00 00 00 00 00 00 00 00 00 00 00 00 00 00
       0.0 0.0 0.0 0.0
0000b0 00 00 00 00 00 00 00 00 00 00 00 00 00 00 00 00
       0.0 0.0 0.0 0.0
0000c0 00 00 00 00 00 00 00 00 00 00 00 00 00 00 00 00
       0.0 0.0 0.0 0.0
0000d0 00 00 00 00 00 00 00 00 00 00 00 00 00 00 00 00
       0.0 0.0 0.0 0.0
0000e0 00 00 00 00 00 00 00 00 00 00 00 00 00 00 00 00
       0.0 0.0 0.0 0.0
0000f0 00 00 00 00 00 00 00 00 00 00 00 00 00 00 00 00
       0.0 0.0 0.0 0.0

11.running_mean f4 [64]
000000 00 00 00 00 00 00 00 00 00 00 00 00 00 00 00 00
       0.0 0.0 0.0 0.0
000010 00 00 00 00 00 00 00 00 00 00 00 00 00 00 00 00
       0.0 0.0 0.0 0.0
000020 00 00 00 00 00 00 00 00 00 00 00 00 00 00 00 00
       0.0 0.0 0.0 0.0
000030 00 00 00 00 00 00 00 00 00 00 00 00 00 00 00 00
       0.0 0.0 0.0 0.0
000040 00 00 00 00 00 00 00 00 00 00 00 00 00 00 00 00
       0.0 0.0 0.0 0.0
000050 00 00 00 00 00 00 00 00 00 00 00 00 00 00 00 00
       0.0 0.0 0.0 0.0
000060 00 00 00 00 00 00 00 00 00 00 00 00 00 00 00 00
       0.0 0.0 0.0 0.0
000070 00 00 00 00 00 00 00 00 00 00 00 00 00 00 00 00
       0.0 0.0 0.0 0.0
000080 00 00 00 00 00 00 00 00 00 00 00 00 00 00 00 00
       0.0 0.0 0.0 0.0
000090 00 00 00 00 00 00 00 00 00 00 00 00 00 00 00 00
       0.0 0.0 0.0 0.0
0000a0 00 00 00 00 00 00 00 00 00 00 00 00 00 00 00 00
       0.0 0.0 0.0 0.0
0000b0 00 00 00 00 00 00 00 00 00 00 00 00 00 00 00 00
       0.0 0.0 0.0 0.0
0000c0 00 00 00 00 00 00 00 00 00 00 00 00 00 00 00 00
       0.0 0.0 0.0 0.0
0000d0 00 00 00 00 00 00 00 00 00 00 00 00 00 00 00 00
       0.0 0.0 0.0 0.0
0000e0 00 00 00 00 00 00 00 00 00 00 00 00 00 00 00 00
       0.0 0.0 0.0 0.0
0000f0 00 00 00 00 00 00 00 00 00 00 00 00 00 00 00 00
       0.0 0.0 0.0 0.0

11.running_var f4 [64]
000000 00 00 80 3f 00 00 80 3f 00 00 80 3f 00 00 80 3f
       1.0 1.0 1.0 1.0
000010 00 00 80 3f 00 00 80 3f 00 00 80 3f 00 00 80 3f
       1.0 1.0 1.0 1.0
000020 00 00 80 3f 00 00 80 3f 00 00 80 3f 00 00 80 3f
       1.0 1.0 1.0 1.0
000030 00 00 80 3f 00 00 80 3f 00 00 80 3f 00 00 80 3f
       1.0 1.0 1.0 1.0
000040 00 00 80 3f 00 00 80 3f 00 00 80 3f 00 00 80 3f
       1.0 1.0 1.0 1.0
000050 00 00 80 3f 00 00 80 3f 00 00 80 3f 00 00 80 3f
       1.0 1.0 1.0 1.0
000060 00 00 80 3f 00 00 80 3f 00 00 80 3f 00 00 80 3f
       1.0 1.0 1.0 1.0
000070 00 00 80 3f 00 00 80 3f 00 00 80 3f 00 00 80 3f
       1.0 1.0 1.0 1.0
000080 00 00 80 3f 00 00 80 3f 00 00 80 3f 00 00 80 3f
       1.0 1.0 1.0 1.0
000090 00 00 80 3f 00 00 80 3f 00 00 80 3f 00 00 80 3f
       1.0 1.0 1.0 1.0
0000a0 00 00 80 3f 00 00 80 3f 00 00 80 3f 00 00 80 3f
       1.0 1.0 1.0 1.0
0000b0 00 00 80 3f 00 00 80 3f 00 00 80 3f 00 00 80 3f
       1.0 1.0 1.0 1.0
0000c0 00 00 80 3f 00 00 80 3f 00 00 80 3f 00 00 80 3f
       1.0 1.0 1.0 1.0
0000d0 00 00 80 3f 00 00 80 3f 00 00 80 3f 00 00 80 3f
       1.0 1.0 1.0 1.0
0000e0 00 00 80 3f 00 00 80 3f 00 00 80 3f 00 00 80 3f
       1.0 1.0 1.0 1.0
0000f0 00 00 80 3f 00 00 80 3f 00 00 80 3f 00 00 80 3f
       1.0 1.0 1.0 1.0

16.weight f4 [32, 64]
000000 78 fd 8d 3d 18 02 e6 bd 80 0a b7 3c ec 4f ec 3d
       0.06933111 -0.11230868 0.022343874 0.115386814
000010 38 81 35 bd 80 f2 b2 bd 10 cd b1 3d 7c 37 a0 3d
       -0.044312686 -0.087376595 0.08681691 0.07823083
000020 b0 48 62 bd 9e d0 a2 3d 00 d7 73 bd f8 a0 a6 bd
       -0.0552451 0.07949947 -0.05953121 -0.08136171
000030 2c 4a 53 3d 76 e9 e3 3d 94 fa e6 bd 76 b8 bc bd
       0.051584408 0.111285135 -0.11278263 -0.09214871
000040 00 ad 0f bd 90 db f3 bd 86 03 b6 3d 80 e0 92 ba
       -0.035077095 -0.119071126 0.08887391 -0.0011205822
000050 40 a2 81 3c 4e e0 ca 3d 2c 3e 11 bd f0 c7 0b bd
       0.015824437 0.09906064 -0.035459682 -0.034126222
000060 00 96 41 3c fc 60 8e bd 6a 35 9f 3d 2c 17 e4 bd
       0.011815548 -0.06952092 0.0777386 -0.11137232
000070 00 2a c6 3b b0 28 7c bd 30 9a f0 3d 58 0f f7 bd
       0.0060474873 -0.06156224 0.11748159 -0.120634735
000080 70 b2 dc 3c 40 ff f8 3b 20 2e 93 3d 4c 06 97 bd
       0.026940554 0.0075987875 0.07186532 -0.07374248
000090 10 01 24 bd 2c 0b 5a 3d 30 70 53 bd ae 22 ec bd
       -0.040040076 0.05323331 -0.051620662 -0.11530052
0000a0 8c 45 20 bd 50 08 f9 bc 86 6c b7 3d 40 c8 b1 bb
       -0.039128825 -0.030399472 0.08956246 -0.005425483
0000b0 d6 f5 e0 bd 00 50 9f b8 48 92 da bc e4 94 a4 bd
       -0.109843895 -7.596612e-05 -0.02668108 -0.08036211
0000c0 80 ab 82 3d d0 fd 1f bc 20 b9 b8 3b 10 ac 48 bc
       0.06380367 -0.009765103 0.005637303 -0.012248054
0000d0 e4 c1 8b bd 20 7e 8a bc 10 d2 f5 bd be fd fe 3d
       -0.06824091 -0.016905844 -0.12002957 0.12450741
0000e0 5c de b5 bd 00 59 64 bd 54 2b e1 bd f2 ce f4 3d
       -0.08880302 -0.05574894 -0.10994592 0.11953534
0000f0 da d8 80 3d f8 1e eb bc a0 6c 01 bc f0 4c ee 3c
       0.06291361 -0.02870129 -0.007899433 0.029089421
000100 78 e0 b7 3c 3e 74 f5 3d a8 d0 ef bd 44 88 b5 3d
       0.022445902 0.11985062 -0.1170972 0.08863881
000110 dc 2d 36 bd 8e 86 ce bd 64 de 80 bd c0 28 f8 3c
       -0.04447733 -0.10084258 -0.06292418 0.030292869
000120 d0 69 b5 bc b0 0c 92 3d 2e 5b d2 bd f4 eb 95 bd
       -0.022145182 0.07131326 -0.102712974 -0.07320395
000130 a0 46 00 bc d4 d1 f4 3d 62 0d c1 bd b2 3f ae bd
       -0.007829338 0.11954084 -0.09426381 -0.08508243
000140 6a 29 86 3d 28 db 7e bd 00 a4 27 bc 08 10 c5 3c
       0.06550868 -0.062220722 -0.010231972 0.024055496
000150 d0 90 e1 bd e6 5e be 3d 20 b0 cb 3b dc 56 b7 bd
       -0.11013949 0.09295444 0.006216064 -0.08952114
000160 50 18 fd 3c 00 70 70 3a 08 f0 dd 3c 94 23 6d 3d
       0.030895382 0.0009171963 0.027091995 0.057895258
000170 d2 31 ec bd 08 eb 44 bd b0 06 05 bd 72 b1 bf bd
       -0.1153294 -0.048075706 -0.03247708 -0.09360017
000180 e6 27 89 3d fa 96 8c bd 34 20 98 3d 38 58 71 3d
       0.06697063 -0.06864734 0.07428017 0.058922023
000190 06 50 80 3d 88 94 92 bc ae 14 e4 bd 40 ff 5b 3c
       0.06265263 -0.01789309 -0.11136757 0.013427556
0001a0 b0 a4 ac bd b8 fd cb 3d 2c 11 b9 3d 70 9a e4 bd
       -0.08429849 0.099605024 0.090364784 -0.11162269
0001b0 00 38 6f 3c f8 6e a2 bc a2 42 85 3d e4 e5 fc 3d
       0.014600754 -0.019828305 0.0650685 0.12348536
0001c0 68 ee b2 3c 40 e8 3c bc 2e 8a a0 bd 2a ae f4 3d
       0.021842197 -0.011529982 -0.07838856 0.11947282
0001d0 b0 65 20 bc 50 fa b6 3c 72 9e f4 3d 50 3b 29 3d
       -0.009789869 0.022336155 0.119442835 0.04131633
0001e0 1a 0f c4 bd 92 51 bc bd 24 15 d1 3d 90 6d c9 bd
       -0.09573193 -0.09195246 0.102091104 -0.098353505
0001f0 ea df fe bd 10 6c 1a bd fc 56 0d 3d e4 ee 4c 3d
       -0.12445052 -0.037700713 0.034506783 0.05003251
000200 74 71 e0 3d 8e e3 9d 3d 70 28 59 bd 90 7b 5e bc
       0.109591395 0.07709418 -0.05301708 -0.013579264
000210 4c d5 08 bd c0 e2 d1 3b c4 9c 15 bd 74 89 30 bd
       -0.03340654 0.0064052045 -0.036526456 -0.043099836
000220 18 13 f5 bd e0 e8 ea 3b a8 fc fe 3c 7c 57 fc bd
       -0.119665325 0.007168874 0.031126335 -0.12321374
000230 0e 42 e6 3d 28 63 e5 bd a4 d2 c5 bd d0 fb aa bd
       0.11243068 -0.11200553 -0.09659317 -0.08348811
000240 d6 29 99 bd 20 80 ee bc 14 9a 16 bd 80 57 fb ba
       -0.07478683 -0.02911383 -0.036768034 -0.0019175857
000250 0a 96 ef bd b0 68 a3 3c b0 00 bb 3c 70 cd 70 bd
       -0.116985396 0.01994738 0.022827476 -0.05878967
000260 00 75 9a bd 20 eb 6f 3d 4c cc a1 bd e0 68 65 bc
       -0.07541847 0.058573842 -0.07900295 -0.014002055
000270 6e 47 e4 bd ac a4 7f bd 00 49 21 3b 20 0c 4c 3d
       -0.11146437 -0.062412903 0.0024610162 0.04981625
000280 84 ca a9 3d c8 92 9f bc 6e b6 b2 3d 94 62 16 bd
       0.0829058 -0.01947917 0.08726202 -0.036715105
000290 88 14 cb 3d 1e 24 a6 bd fc 91 e6 3d 8e 95 f7 bd
       0.099160254 -0.081123576 0.11258313 -0.12089072
0002a0 8a 6c ea 3d 50 fe 3e bd 7c 1d 2d 3d 38 2d 0c 3d
       0.114464834 -0.04662925 0.042264447 0.03422281
0002b0 68 d1 85 3d 30 3a c2 3d c4 46 33 bd 12 af cf bd
       0.06534082 0.09483755 -0.04376866 -0.10140814
0002c0 c0 6c 6e bc fa 22 e8 bd 58 3f 99 3c 20 86 ce bd
       -0.014552295 -0.11334796 0.018706962 -0.10084176
0002d0 28 0f ff 3d 78 52 17 bd 38 b4 e6 3c 78 32 12 bd
       0.12454063 -0.036943883 0.028162107 -0.035692662
0002e0 18 62 45 bd 80 4a c3 3a 08 cc f0 3d c0 aa a8 3b
       -0.048189253 0.0014899522 0.11757666 0.005147308
0002f0 ee 13 d0 bd 90 b7 ee 3c 80 fe 9a 3b 56 12 b1 bd
       -0.10160051 0.029140264 0.004730046 -0.086460754
000300 a8 17 c8 bd c0 87 ee 3b 50 79 56 3d 30 b8 53 3c
       -0.09770137 0.0072793663 0.052361786 0.012922332
000310 ee 46 fa bd 4e f4 9a bd 80 f9 e2 3c 84 26 84 bd
       -0.1222056 -0.07566129 0.027706861 -0.06452659
000320 d4 21 e1 3d 70 9f 46 bc e0 53 c7 3d 30 77 42 bc
       0.1099278 -0.012122974 0.09732795 -0.011869237
000330 00 51 4e bc c8 53 1c bd a0 73 50 bc 60 54 d8 3b
       -0.012592554 -0.038165838 -0.01272288 0.006601855
000340 64 1b 44 3d 90 12 88 3c b0 5b 6a 3d 12 db ca 3d
       0.047877684 0.016610414 0.057216346 0.099050656
000350 94 b2 66 bd 92 69 f9 bd f0 f3 2f bd 04 dc 08 3d
       -0.05632265 -0.12178339 -0.042957246 0.03341295
000360 3a 55 b6 bd e4 81 70 bd 00 f9 41 bd 92 a9 b1 bd
       -0.089029744 -0.058717623 -0.047356606 -0.08674921
000370 fc 3c c9 3d e4 ce 4b bd 68 6b e7 3c c0 a8 31 bb
       0.09826085 -0.049757853 0.028249457 -0.002710864
000380 78 4b e8 bd 00 0c d6 39 40 09 08 3d b6 e7 ac 3d
       -0.113425195 0.000408262 0.033211946 0.08442633
000390 a0 b7 a0 bb 50 7d 04 bc 82 94 dd 3d 5e b4 d3 3d
       -0.0049047023 -0.008086517 0.10819341 0.10337137
0003a0 3c eb 81 bd 24 fc ff bd 78 23 e3 bc 4a 4a fb 3d
       -0.063436955 -0.12499264 -0.027726874 0.12270029
0003b0 b4 9b 75 3d 74 16 a3 3d b6 43 cd bd 40 6b 21 bd
       0.059962943 0.07963267 -0.100226805 -0.039408922
0003c0 00 05 08 ba d0 e2 c1 bc b4 0f 19 3d 4c 57 66 bd
       -0.00051887333 -0.023667723 0.03736849 -0.056235597
0003d0 f4 93 82 3d 48 a8 8b 3d 48 75 f9 bc 38 68 ed bc
       0.06375876 0.068192065 -0.030451432 -0.02898036
0003e0 68 0a 27 3d 84 9e 31 3d a8 9c 10 3d 1a 89 8a bd
       0.04078141 0.043364063 0.03530565 -0.06764431
0003f0 84 ec 74 bd 44 c3 4c 3d 54 16 6c 3d 2c ae 0a bd
       -0.05979587 0.049990907 0.05763848 -0.03385751

16.bias f4 [32]
000000 1a 50 e5 3d 30 f3 25 bd 14 ed 86 3d 90 63 a0 3c
       0.11196919 -0.040515125 0.06588188 0.019578725
000010 14 bd b9 bd 80 50 f6 bc 00 a6 b9 3c 80 51 06 bb
       -0.09069267 -0.030067682 0.022662163 -0.0020495355
000020 e0 c7 a9 bd b2 2a 84 bd 68 18 bd bd 30 7e 56 bc
       -0.08290076 -0.06453456 -0.09233171 -0.013091609
000030 50 00 37 3d 00 9d 07 3b 80 96 30 3d 14 16 4b bd
       0.044678032 0.0020692945 0.043112278 -0.049581602
000040 ae 38 c7 3d 14 34 92 3d 48 90 75 3d ea 44 bc bd
       0.09727608 0.07138839 0.05995205 -0.09192832
000050 50 a1 c9 3c 2c 34 65 3d e4 68 3d bd 40 07 e6 bb
       0.024613053 0.055957958 -0.04624261 -0.0070199072
000060 70 99 77 3c dc 9d 7b 3d 80 76 ab bd 40 b3 c2 bd
       0.015112266 0.061429843 -0.083722115 -0.095068455
000070 00 4f 8e bb 94 7f e0 bd f4 39 02 bd 0c 05 bb 3d
       -0.0043429136 -0.109618336 -0.03179355 0.09131822
